src/graphite/pretrained_models/denoiser/Cu-denoiser.pt (torch, 581531 bytes, 37 tensors)

weight f4 [1, 8]
00000000: 9d4f f53e a8ec 39bf 9745 c4bf 59c8 b43e
00000010: dc99 aabf 2e5f b7be ea7b 5c3f 2c2f 13bf
0.47912303 -0.72626734 -1.5333737 0.35309103 -1.3328204 -0.35814804 0.8612658 -0.57493854

weight f4 [1, 8]
00000000: 7467 723e 930f 0c3f ba4d f63e b190 2740
00000010: f099 2fbf 9125 5fbf 194e 2abf d5b0 91bf
0.23672277 0.54711264 0.48106176 2.6182063 -0.68594265 -0.87166697 -0.6652542 -1.138209

weight f4 [1280]
00000000: 21e3 81be 8ce7 16bf 3a8f d6be 9bd8 e5be
00000010: 84e2 04bf 50e2 67bf bd50 203f 8e33 443e
00000020: ca24 fa3e de43 c03e 3c3d 173e cb6f 1cbf
00000030: f893 4f3f 02b8 ad3e ce13 463f 5f97 bdbf
00000040: 2968 84bf 9695 0dbf c1fb f13c 5b04 943d
00000050: db57 00bd 178e 0cc0 5815 413f 657f b23f
00000060: 6373 703f 90c6 d8be bc25 8d3f 9bfd 493f
00000070: b601 f9bd 6e7d d3bd 86f4 38bf 6ac0 0ebf
00000080: 9855 d63f 1c07 b9bf b8c2 df3e d6d9 85bf
00000090: ed68 c03e c497 16be adf8 1440 34a3 213f
000000a0: 7f67 e33f e626 443e cc98 bd3e 1c1f 613e
000000b0: f40b ae3e a84f 82bf 444e 09bf ce77 d73e
000000c0: 01bb f33f 4920 b0bf 027e b3bd fcfe 783e
000000d0: ec8b e13c a307 33c0 72e1 7b3f 2f25 a6be
000000e0: fad7 6c3f 8854 81be 4f6e debe 2a27 e23f
000000f0: 5620 543e a3b3 a2bf 4d16 f5be 043a 803f
00000100: 5ab5 873f 4f91 8f3f 606a 8bbf f206 c13e
00000110: 0850 5e3f 8cfa 253f e78a 9abd 988e 4dbf
00000120: 1ca0 90bf 12c0 84bf d6e4 813f ffe4 ad3f
00000130: 4e65 413f 8b03 0c3f 3fc0 6cbf a325 36bf
00000140: e0ac 803f dcbf 58be f43e 813f 385f dabe
00000150: 3d44 733f 96be 0b3e 319b debf d281 90bf
00000160: 1eaa c63e 6090 99be 98cd 843e b61d d3be
00000170: 8a12 d1bf 0121 4bbf c444 b53e e0d7 9cbf
00000180: e54c 2f3d da7f acbe ed8c 093e 7e3f ce3e
00000190: e2dc 133e 77dc 943f c7ff 173f a592 fe3e
000001a0: 8932 363f 19bf 69bf 7e1f adbf 18cd 0fc0
000001b0: 8fa1 81bf cc04 06c0 50a9 3cbf 5133 5fbf
000001c0: 50a8 eebe 02e0 38bf 755f 7fbe 37a4 fcbd
000001d0: 5c12 48bf 9aa6 66bf 97f6 85bf b31b bdbe
000001e0: 8342 143f 1071 033f f336 f43e d200 f6bf
000001f0: c611 26bf 1648 c8be 32d1 7abf ba67 93bd
00000200: 6616 72bf 540e cd3f ff98 a93f 3df3 a53f
00000210: 2beb 343e 50e5 093f f557 a2be a957 0e3f
00000220: a075 443f 58e1 babe 559d b33f dd5a dabe
00000230: f9fb 8abf fb98 d7bf 4c3a ccbe 9f84 c53e
00000240: decb db3f 870a e23f 8974 273f c0a4 f1bf
00000250: 4627 b03c c278 b4bf 984d 3abf 3174 16bf
00000260: 0fa2 093f bf94 1bc0 2a65 21be 6098 ffbe
00000270: 4618 37be 1f9a 6ebf f59b a5bf ca0c a6bf
00000280: aaaf 09c0 7a00 3abf 9d7b a2be e66e d73e
00000290: dd13 1abd 9825 ecbe b7ce 763f b503 cbbf
000002a0: c378 9abe f1a1 843d 1e33 f8bf c308 6fbf
000002b0: 7041 2abe 0b0f b63d 7c19 d33c 2e6c 4f3f
000002c0: 98e6 7fbd f010 c13d 4e12 ae3f cc73 c73f
000002d0: 5385 e23e f848 0a3f 0f36 a3bf 683d 2f3f
000002e0: fa30 d53d 2cdd f6bf 29f6 05c0 62a2 f2bf
000002f0: 8145 a73e c1d2 1ebe 9fbc 8bbf 3026 a73e
00000300: e9a1 84bf 2659 a6be 11eb 75be e197 dcbf
00000310: 357c 343f 501e c13e 7acb b03e 2ed7 5b3f
00000320: 3431 1cc0 d708 22bf 1e51 d83e 575f 9d3f
00000330: 57ca ca3f df09 1bbe 8428 8e3f 7261 a63f
00000340: f4db 593f e82a ff3e 105e 89bf f8a4 4cbd
00000350: d5aa 23bd f975 2f3f 9957 35be 01e2 a2bf
00000360: f75c b93f 74ed 20bf 6334 783f 149d f53e
00000370: e9bd 94be af76 0ebf d98f 0740 4c70 9abc
00000380: 1068 ef3f 72d3 fcbf 0c2c 08c0 20d7 05c0
00000390: d78d 253f 214c 92be 482c 0f40 db27 38be
000003a0: 60c7 353f 4e37 da3f 0315 b63f e543 f8be
000003b0: 5ef0 7cbf ac37 78bf 1bc3 e3bd a923 fa3f
000003c0: 8a43 c0be 7183 e1be 46d5 77be 1f41 ecbe
000003d0: 2f2b c0bf f90f 0a3f 3958 433f 7ed2 353f
000003e0: 84a8 31bf bc43 dfbe 732d 7dbf 278c 01bf
000003f0: bb48 7e3e c076 56bf ecf4 13bf 4e00 603f
-0.25368598 -0.5894706 -0.41906148 -0.4489182 -0.51908135 -0.905797 0.62623197 0.19160292
0.48856193 0.3755178 0.14769453 -0.6110808 0.8108516 0.3392945 0.7737397 -1.481182
-1.0344287 -0.55306375 0.02953899 0.07227393 -0.031333786 -2.1961725 0.7542319 1.3945128
0.93926066 -0.4233899 1.1027141 0.78902596 -0.121585295 -0.10326658 -0.72248113 -0.5576235
1.6744871 -1.4455295 0.43703246 -1.0457103 0.37580052 -0.14706331 2.327678 0.63139653
1.776596 0.19155464 0.37030637 0.21984524 0.33993495 -1.0180559 -0.5363505 0.4208359
1.9041444 -1.3759853 -0.087642685 0.24316019 0.02753254 -2.797341 0.9839088 -0.32450244
0.92517054 -0.25259805 -0.43443534 1.7668202 0.2071546 -1.2711071 -0.47868577 1.0017705
1.0602219 1.121622 -1.0891838 0.3770061 0.8684087 0.6483543 -0.07546025 -0.80295706
-1.1298862 -1.0371115 1.014796 1.3585509 0.75545204 0.54692906 -0.92480844 -0.7115118
1.0052757 -0.21166939 1.0097337 -0.4265077 0.95026 0.13646922 -1.7391111 -1.1289618
0.38801664 -0.29992962 0.25938106 -0.41233605 -1.6333783 -0.79347235 0.35404027 -1.225338
0.04279794 -0.33691293 0.13432665 0.40282816 0.14439729 1.162978 0.5937466 0.49721256
0.7117086 -0.91307217 -1.3525236 -2.246893 -1.0127429 -2.0940428 -0.7369585 -0.8718768
-0.46612787 -0.7221681 -0.24938758 -0.12336009 -0.78153014 -0.90097964 -1.0465878 -0.36935195
0.5791399 0.51344395 0.47698173 -1.9219 -0.6487087 -0.39117497 -0.97975457 -0.07197519
-0.9456543 1.6019998 1.3249816 1.2964855 0.17667834 0.5386553 -0.3170773 0.5560251
0.7674198 -0.3650005 1.4032389 -0.42647448 -1.0858146 -1.6843561 -0.39888227 0.38577744
1.717159 1.7659463 0.65412194 -1.8878403 0.021503102 -1.4099352 -0.7277465 -0.58771044
0.53762907 -2.4309537 -0.15761247 -0.4992094 -0.17880353 -0.9320392 -1.2938219 -1.2972653
-2.1513467 -0.7265698 -0.31734934 0.42076796 -0.0376166 -0.46122432 0.9640917 -1.5860506
-0.3017026 0.064762 -1.93906 -0.93372744 -0.16626525 0.08889588 0.025768988 0.81024444
-0.06247577 0.09427059 1.3599336 1.5582213 0.44242343 0.5401759 -1.2750872 0.68453074
0.10409732 -1.9286246 -2.0931494 -1.8955805 0.32670215 -0.15510084 -1.0916938 0.32646322
-1.0361911 -0.3248989 -0.24015452 -1.723385 0.70502025 0.3771844 0.3453024 0.85875213
-2.4405031 -0.6329474 0.42249388 1.229472 1.5842999 -0.15140484 1.1106114 1.2998488
0.85101247 0.49837422 -1.0731831 -0.049962014 -0.03995784 0.68539387 -0.17709197 -1.2725221
1.4481496 -0.62862325 0.96954936 0.47971404 -0.2905114 -0.55649847 2.1181548 -0.018852375
1.8703632 -1.9752028 -2.1276884 -2.0912552 0.64669555 -0.28573707 2.2370777 -0.17983954
0.7100735 1.7048128 1.4225162 -0.484893 -0.9880427 -0.9695995 -0.11121198 1.9542133
-0.37551528 -0.44045594 -0.24202451 -0.46143433 -1.5013179 0.5393062 0.7630649 0.7102431
-0.6939776 -0.43606365 -0.98897475 -0.5060448 0.24832432 -0.8377495 -0.57795596 0.87500465

output_mask f4 [64]
00000000: 0000 803f 0000 803f 0000 803f 0000 803f
00000010: 0000 803f 0000 803f 0000 803f 0000 803f
00000020: 0000 803f 0000 803f 0000 803f 0000 803f
00000030: 0000 803f 0000 803f 0000 803f 0000 803f
00000040: 0000 803f 0000 803f 0000 803f 0000 803f
00000050: 0000 0000 0000 0000 0000 0000 0000 0000
00000060: 0000 0000 0000 0000 0000 0000 0000 0000
00000070: 0000 0000 0000 0000 0000 0000 0000 0000
00000080: 0000 0000 0000 0000 0000 0000 0000 0000
00000090: 0000 0000 0000 0000 0000 0000 0000 0000
000000a0: 0000 0000 0000 0000 0000 0000 0000 0000
000000b0: 0000 0000 0000 0000 0000 0000 0000 0000
000000c0: 0000 0000 0000 0000 0000 0000 0000 0000
000000d0: 0000 0000 0000 0000 0000 0000 0000 0000
000000e0: 0000 0000 0000 0000 0000 0000 0000 0000
000000f0: 0000 0000 0000 0000 0000 0000 0000 0000
1.0 1.0 1.0 1.0 1.0 1.0 1.0 1.0
1.0 1.0 1.0 1.0 1.0 1.0 1.0 1.0
1.0 1.0 1.0 1.0 0.0 0.0 0.0 0.0
0.0 0.0 0.0 0.0 0.0 0.0 0.0 0.0
0.0 0.0 0.0 0.0 0.0 0.0 0.0 0.0
0.0 0.0 0.0 0.0 0.0 0.0 0.0 0.0
0.0 0.0 0.0 0.0 0.0 0.0 0.0 0.0
0.0 0.0 0.0 0.0 0.0 0.0 0.0 0.0

weight f4 [512]
00000000: c50d 4dbe 82c6 c8be 7a42 c6be 22d3 af3f
00000010: d596 f93f 384c debf 33ff 2cbe 3b75 423f
00000020: cf26 733f de56 0cbf 934e 96bf 8bbf 443e
00000030: eb78 90bf c13d 08bd 6dbf f4bf 7b5f a23f
00000040: c5ef 323f 6fdd 1abe ed3b 5dbf 4e9b d23e
00000050: 36d6 17be 6647 c1bf 7178 9cb9 56ad c53f
00000060: 07a3 eebf f42a bd3f d307 95bf 2e67 bc3f
00000070: 99ae 253f cca1 8cbf c041 29bf f425 73be
00000080: 3528 85bf 0e52 d4be 2c8d fa3f 7f23 debf
00000090: 4fb9 833e a5c0 00bd 35eb cfbf 6f3b 903f
000000a0: 7e40 6b3f 747b 803f f7d2 773f 12ec 54bf
000000b0: 8086 33bf 908b a13f b6a8 1f3f 4585 22bf
000000c0: 14ad 1e40 431e b13f e485 ff3e a7e8 33bd
000000d0: 2bd8 91bf 94f3 02c0 803f 1cbf 96f6 023f
000000e0: 1e20 f83f 2f9f 863f 713b 87bf f515 2f3f
000000f0: 9900 233e 6cdd f33e 39d1 e0bf cfbf 0d40
00000100: 231f f3be 033b 4b3f 30d5 e43e fa34 1cbf
00000110: 2df6 91be 1e6a eabf b058 81bf df8c b73e
00000120: 8149 4ebf 39b5 4bbf 4520 cf3d c6d3 113b
00000130: 0b8f d2bd 443a 433e f67e 953f c857 84bf
00000140: c9a2 12bf 77f7 73bd 2511 4fbf 6a08 aa3f
00000150: d106 2b3f e8c0 a2bf 9655 d53f 5cd1 60bf
00000160: 8286 863f 282e b43e 06a3 b03f 19f3 203f
00000170: a113 0e3f 2f08 2f3f e990 b0bf 9ae6 2a3e
00000180: 7cb2 fbbf 6fa0 88bf 484d a03f 146b f8be
00000190: f0b1 0540 3b3e 95bf 5ebd 833f 5ef9 babf
000001a0: fa52 98bf bdbc d4bd 7187 a43e cdc4 613e
000001b0: ea94 94bf 49e0 013f aeb5 8dbf 44d0 9b3f
000001c0: 7889 653f 0067 d03c 749b d8bf 25ab 553e
000001d0: 811c 3e3f 2e3d 0abf b548 a9bf 5ddd 61bf
000001e0: cf30 963d 0ea6 92be c7c9 1ebe ca69 9a3f
000001f0: 7e1a 2ebe ca8d fdbc 127e e23f cda0 993f
00000200: 2270 22be d0ae ab3f 1adb 903e d246 bcbf
00000210: fb41 04bd 4d66 a0bf 9c61 04bf 387e 52bd
00000220: 1353 efbf cf26 bcbf 5704 a6be b4bb 03bf
00000230: 3dc5 55bf fd82 073f b7bd 58bf c89f 913e
00000240: f9db 9c3e 83c4 e93f aebd 7cbf 220d 67bf
00000250: f59f 533f ae62 2440 b43a 7d3e 5e00 72bf
00000260: 71de 66be bc6c 6140 1d5c 4dbe 598c 153d
00000270: 1a3e 5a3e 4232 743f 7122 5abd bf93 10c0
00000280: 8c50 843f 5dea 213f 26a6 5dbf ace0 b1be
00000290: 1e52 e6bf df56 083f 4511 b1be 4c0a bbbf
000002a0: 7583 31be 18e9 02c0 98ae 553f 4730 1b3f
000002b0: 9c58 d33e 3143 b53f abc4 b7be 09de 81bf
000002c0: 2126 98be 0a74 c43f c1b2 8cbf 3e9d d03f
000002d0: 679e 30bf b5d1 413f 2124 09c0 9010 00be
000002e0: 9674 d0bf eab7 18be 1bc9 f63e 4878 3e3f
000002f0: 293e 423f 25b9 4ebf a51b f73e 2ebc 93be
00000300: 2918 263f 0ebd a73f d837 e3bf 4b5e 0b3c
00000310: 3925 1fc0 8de6 a23e dd2c b53f 63f1 8fbe
00000320: 4fe5 e63f e512 bb3f b70e 593f 005b 9cbf
00000330: a3f8 f53e 6421 e83f bc09 4fbf f8f5 2c3f
00000340: 4eba cdbf d036 013e d9d2 febd db78 e73c
00000350: 5dc0 043f 301f 73bf 9b05 e5be 7d58 313f
00000360: 09a3 8c3f 7b8d ba3f 5624 cdbf 2ab0 90bd
00000370: 4d78 913e 23f0 a7bf c343 023f 4696 20bf
00000380: ca40 693e 5afa 34be 8c4b 4ebf d904 a53f
00000390: 560b 82bf 5d46 753e ff15 96bf ff8a 323f
000003a0: 4763 29be a6bb bebf bc1e a73d a609 b03f
000003b0: 5e19 ac3e 288b a2bf 6008 233e ee97 aa3f
000003c0: b679 63bf 8a47 c73e 853b da3d 3f22 b83e
000003d0: 555a 51bf 0224 0e3f e8d5 ad3f 49ff babf
000003e0: 8e70 a0bf 831e 4e3f dbb0 813e 2ec4 bcbe
000003f0: 33e1 5e3f ab1c 573f 809c 443e 2bb1 0ebd
-0.20024784 -0.3921395 -0.38722593 1.3736308 1.9499155 -1.736701 -0.16894226 0.7596013
0.9498109 -0.5482005 -1.1742729 0.19213693 -1.1286901 -0.033262018 -1.9120919 1.2685388
0.6989711 -0.15123533 -0.86419564 0.41134113 -0.14827809 -1.5099914 -0.00029844375 1.5443523
-1.8643502 1.4778733 -1.1643013 1.4718988 0.6471954 -1.0986876 -0.6611595 -0.23744947
-1.0402895 -0.41468853 1.9574332 -1.7354583 0.25727317 -0.03143372 -1.6243654 1.1268138
0.9189528 1.0037675 0.9680628 -0.83172715 -0.70127106 1.2620716 0.6236681 -0.63484603
2.4793139 1.383736 0.49906838 -0.043923046 -1.1394094 -2.0461168 -0.61034393 0.5115751
1.9384801 1.0517329 -1.0565015 0.6839288 0.15918197 0.4762987 -1.756385 2.214832
-0.47484693 0.7938692 0.446939 -0.61018336 -0.2850813 -1.8313634 -1.010519 0.35849664
-0.8058091 -0.795734 0.10113577 0.002225147 -0.102811895 0.19065195 1.167937 -1.0339289
-0.5727964 -0.059562173 -0.80885535 1.3283818 0.66807276 -1.271512 1.6666744 -0.8781946
1.0509799 0.35191464 1.3799751 0.6287094 0.554987 0.6837186 -1.3794223 0.1668953
-1.9663844 -1.067396 1.2523584 -0.48519194 2.0889854 -1.1659616 1.0292165 -1.4607351
-1.1900322 -0.103875615 0.32134584 0.2204773 -1.1607945 0.50732857 -1.1071069 1.2172933
0.89662886 0.02543974 -1.692244 0.20866068 0.74262244 -0.539996 -1.3225313 -0.882284
0.07333528 -0.28642315 -0.1550666 1.2063534 -0.17002293 -0.0309514 1.7694724 1.2002198
-0.15863088 1.3412724 0.2829216 -1.4709113 -0.032289486 -1.253122 -0.5171144 -0.051389903
-1.8697227 -1.4699343 -0.32425186 -0.5145829 -0.83504087 0.5293425 -0.8466448 0.28442216
0.30636576 1.8263096 -0.9872693 -0.90254414 0.8266595 2.568523 0.24729425 -0.9453181
-0.22545792 3.5222616 -0.2005467 0.0365108 0.21312752 0.9538919 -0.053255502 -2.2590177
1.0337081 0.63248235 -0.8658165 -0.34741724 -1.799381 0.53257555 -0.34583488 -1.4612517
-0.17335303 -2.045477 0.83469534 0.6062054 0.4127854 1.416113 -0.35892233 -1.0145885
-0.2971659 1.5347912 -1.0992051 1.6297987 -0.689917 0.7571061 -2.1428301 -0.12506318
-1.6285579 -0.14913908 0.48200306 0.74402285 0.758761 -0.8075126 0.4826328 -0.28854507
0.64880615 1.310457 -1.7751417 0.008506368 -2.486647 0.3181652 1.4154316 -0.2811385
1.803873 1.4615141 0.8478808 -1.2215271 0.48041257 1.813519 -0.8087423 0.6756282
-1.6072481 0.12618566 -0.1244256 0.02825587 0.51856023 -0.94969463 -0.4473084 0.6927565
1.0987254 1.4574426 -1.6026714 -0.07064851 0.28412095 -1.3120159 0.50884646 -0.627293
0.22778621 -0.17673627 -0.80584025 1.2892104 -1.015971 0.23952623 -1.1725463 0.6974334
-0.16541778 -1.4901016 0.08160159 1.3752944 0.33613104 -1.2698717 0.15921164 1.3327615
-0.8885759 0.38921767 0.10655884 0.35963628 -0.8177846 0.55523694 1.3580904 -1.4609157
-1.2534349 0.8051531 0.25330243 -0.36868423 0.87062377 0.8402812 0.19200325 -0.03483693

output_mask f4 [8]
00000000: 0000 803f 0000 803f 0000 803f 0000 803f
00000010: 0000 803f 0000 803f 0000 803f 0000 803f
1.0 1.0 1.0 1.0 1.0 1.0 1.0 1.0

output_mask f4 [72]
00000000: 0000 803f 0000 803f 0000 803f 0000 803f
00000010: 0000 803f 0000 803f 0000 803f 0000 803f
00000020: 0000 803f 0000 803f 0000 803f 0000 803f
00000030: 0000 803f 0000 803f 0000 803f 0000 803f
00000040: 0000 803f 0000 803f 0000 803f 0000 803f
00000050: 0000 803f 0000 803f 0000 803f 0000 803f
00000060: 0000 803f 0000 803f 0000 803f 0000 803f
00000070: 0000 803f 0000 803f 0000 803f 0000 803f
00000080: 0000 803f 0000 803f 0000 803f 0000 803f
00000090: 0000 803f 0000 803f 0000 803f 0000 803f
000000a0: 0000 803f 0000 803f 0000 803f 0000 803f
000000b0: 0000 803f 0000 803f 0000 803f 0000 803f
000000c0: 0000 803f 0000 803f 0000 803f 0000 803f
000000d0: 0000 803f 0000 803f 0000 803f 0000 803f
000000e0: 0000 803f 0000 803f 0000 803f 0000 803f
000000f0: 0000 803f 0000 803f 0000 803f 0000 803f
00000100: 0000 803f 0000 803f 0000 803f 0000 803f
00000110: 0000 803f 0000 803f 0000 803f 0000 803f
1.0 1.0 1.0 1.0 1.0 1.0 1.0 1.0
1.0 1.0 1.0 1.0 1.0 1.0 1.0 1.0
1.0 1.0 1.0 1.0 1.0 1.0 1.0 1.0
1.0 1.0 1.0 1.0 1.0 1.0 1.0 1.0
1.0 1.0 1.0 1.0 1.0 1.0 1.0 1.0
1.0 1.0 1.0 1.0 1.0 1.0 1.0 1.0
1.0 1.0 1.0 1.0 1.0 1.0 1.0 1.0
1.0 1.0 1.0 1.0 1.0 1.0 1.0 1.0
1.0 1.0 1.0 1.0 1.0 1.0 1.0 1.0

weight f4 [2048]
00000000: 2180 b43e 823c 5abf 5b5a 5d3f 6765 f0be
00000010: 66a1 823e 6cb3 823d a794 b5bf 121d 47bf
00000020: 8584 f23f 91aa 07bc fa90 1a3e a307 6d3f
00000030: 4a31 df3f a2ec 55bc cff1 f5bf e976 51be
00000040: 2e15 cfbe 27d0 b1bf e088 cebe 2755 993f
00000050: f165 1ebe cb1a 713e 11f5 033f a490 943f
00000060: 546e dfbf 0f94 8f3c a527 9abe 3960 d43f
00000070: bdcd 08bf 8d20 903f f892 f7bf 88a8 043f
00000080: fb56 87bf 44a8 cdbe 0548 65be e896 9fbf
00000090: f1b6 393f 72c8 893f 2c80 b0bf ac87 bc3e
000000a0: 2b82 95bf 70a5 b63d 1d53 803c feb4 833f
000000b0: 9cb8 acbf 8905 5f3e f586 503f b68d 2ebe
000000c0: 8c47 17bf 6886 8a3c a683 dbbf ad81 43bf
000000d0: 7499 6fbf a79b 4dbf dadf 7fbe 52ff 2e3f
000000e0: 8e9a 823f df31 b2bf 564d 58be e222 babe
000000f0: 2ee2 e8bd ed30 1d3f 5b74 e13f f35b 83bf
00000100: 7d61 85be 27bf 0dc0 2481 5abe 48b3 643e
00000110: 33b9 a0bf bc09 27c0 e6f5 49bf 91ca 673e
00000120: 3591 fabc cff6 443a c9a0 60be 57f6 67bf
00000130: c908 803f 5326 e63e 04b5 c6bf 7f72 9abe
00000140: 9893 553f e493 a73c fa08 96be c165 9fbf
00000150: 4d94 ccbf a17c a3bd 9635 cc3d a6e1 323e
00000160: bb09 c7be bb9f 9dbd 40a8 dfbf d1ab 0d40
00000170: 338e b53f 71bc 7b3d 6062 e0be c01c 733f
00000180: 0881 cdbe 720d debf 6a33 c43d 4a8e 22bf
00000190: 3066 8dbf 2a13 47be cf00 f43e aee4 85be
000001a0: 6b67 55bf 30f4 be3f ec16 4abe 8e46 c13e
000001b0: 0b6d 303f a03c 28be c317 913f 38d7 7ebf
000001c0: ce22 2140 9292 bcbf 07d2 1abf e593 7ebf
000001d0: dcfa 05bf c229 9bbf f760 ae3e 7e75 17bf
000001e0: ef42 3f40 f2d0 973f cff7 12be fb5d 003f
000001f0: cec9 03be fb89 23bf ccea 46bf 4324 bbbf
00000200: 4ad9 c1bf e766 c13f e983 0f3e 9706 7bbf
00000210: a067 3440 9214 8fbe 3166 d33e 0f9e 0140
00000220: 2b72 aabe fadd a9be ec27 d13e e7da 5a3f
00000230: 29a2 543f cc6f f8bf 2a4b cabf 8732 d93d
00000240: 6f7e d03e a775 5f3e d392 c33f 54bd 27bf
00000250: 9cbe 1bbe b328 a63f 3634 993f e5e5 903f
00000260: bb43 86be dfc5 bebf e205 0fbf 4af0 94bf
00000270: c514 7ebf 992b c7be 717b 6ebf ff7b 253f
00000280: 60ab b33e 76ee 653f b68c 1a3f 6bc7 393c
00000290: 7ad2 bf3f f391 b7be 1ce6 b13f 7094 85bf
000002a0: c6a6 93bf dd2a af3e 6bc9 733f bae0 233f
000002b0: ef9f 8bbf 0acd 2ebe ff68 a63f ec51 41bf
000002c0: 7f0a b3bf d60c f3be 604f 963e e38d 743e
000002d0: ed05 aabf b2eb 953f dd93 e83e d6dd 1dbe
000002e0: 7f45 a53e 7a27 3ebf 3956 0940 566f 75bd
000002f0: 6946 133f a8fa 89bf b7b5 803e 6f88 b23f
00000300: 7c55 d53e db65 c43c 2d15 54bf 1109 433f
00000310: 5dda da3f 0e91 da3f f45d 6dbe cd13 833f
00000320: 9838 3cbf 4c28 aebf 3489 b8bf be0f a9bf
00000330: 3bdc 0dbf 8024 cd3c 0c2b 823f d3a3 763f
00000340: 1d3d eebf f62b 19c0 b13c e23d ed98 40c0
00000350: f63f 4a3f 09b5 713f 38ba 4dbf 7794 e2bf
00000360: 8184 003e b7da e43d c06d 243f 907c fe3e
00000370: 776c afbe 07c2 c6be f685 543f 762e 0cbe
00000380: b2d3 15bf 484e 813f e389 a03e 2428 aebe
00000390: bba6 12bf aac5 91bf 00c5 71bf a31e 943e
000003a0: e8c9 20bf 276b 013e 1cb1 b1be 88f2 413f
000003b0: 7f66 4c3f a83f b13e 275e 743e dfa7 253f
000003c0: c29b 0ebf 8303 81bd 08e9 23bf fb4b 72bd
000003d0: 4a60 14bf 4076 a93e 823e ab3f d8b5 09c0
000003e0: a119 ac3f b3b8 e63f 0cc3 60bf fb5a abbe
000003f0: c3d0 433e a04a b13e 81d5 853f 1c0a 2d40
0.35254005 -0.8524858 0.86465997 -0.46952364 0.25513762 0.06381878 -1.418599 -0.7777873
1.8946692 -0.008280412 0.15094367 0.9258978 1.7436917 -0.013056906 -1.9214419 -0.20455517
-0.40445846 -1.3891648 -0.40338802 1.1979111 -0.15468575 0.23545377 0.51545817 1.1606641
-1.7455544 0.017526655 -0.3010837 1.6591865 -0.5343893 1.1259934 -1.9341726 0.5181966
-1.0573419 -0.4016744 -0.22390755 -1.2467928 0.7254477 1.0764296 -1.3789115 0.3682226
-1.1680349 0.089182734 0.015664632 1.028961 -1.3493838 0.21779455 0.8145593 -0.17046246
-0.59093547 0.016909793 -1.7149551 -0.76369745 -0.93593526 -0.8031563 -0.24987736 0.6835834
1.0203416 -1.392147 -0.21123251 -0.36354738 -0.11371265 0.6140278 1.7613634 -1.0262436
-0.2605094 -2.214792 -0.21338326 0.22334015 -1.2556518 -2.6099691 -0.78890836 0.22635867
-0.030586818 0.0007513584 -0.21936335 -0.9061026 1.0002681 0.44951114 -1.5523992 -0.3016548
0.83428335 0.020456262 -0.29303724 -1.2452928 -1.5982758 -0.079827555 0.09971158 0.1746889
-0.3887461 -0.07696482 -1.7473221 2.2136118 1.4184021 0.06145901 -0.43825054 0.94965744
-0.40137506 -1.7347853 0.09580119 -0.63498366 -1.104681 -0.19440904 0.47656867 -0.2615103
-0.8336093 1.491827 -0.19735307 0.3774914 0.68916386 -0.16429377 1.1335377 -0.9954715
2.5177493 -1.473223 -0.60476726 -0.9944442 -0.52335906 -1.2122118 0.34058353 -0.59163654
2.9884603 1.186064 -0.14352344 0.501434 -0.12869951 -0.63882416 -0.7770202 -1.4620441
-1.5144436 1.5109528 0.14015163 -0.9805693 2.8188248 -0.2794538 0.41288903 2.0252721
-0.33290228 -0.33177167 0.4085077 0.8549027 0.83059937 -1.9409118 -1.5804188 0.106053405
0.4072146 0.21822225 1.5279182 -0.65523267 -0.1520943 1.298117 1.1969059 1.1320158
-0.2622355 -1.4904135 -0.5586835 -1.163583 -0.9925044 -0.3890045 -0.93157107 0.6464233
0.35091686 0.8981699 0.6037096 0.011339049 1.4986107 -0.35853538 1.3898349 -1.0435925
-1.153527 0.3421239 0.95229214 0.6401478 -1.0908183 -0.17070404 1.3000792 -0.7551563
-1.3987578 -0.4747073 0.29357433 0.2388225 -1.3283058 1.1712554 0.4542531 -0.15416655
0.32279584 -0.74278986 2.1458876 -0.05992063 0.5752931 -1.0779619 0.25138637 1.3947886
0.41666782 0.02397435 -0.8284481 0.7618571 1.7097889 1.7075517 -0.23180372 1.0240418
-0.73523855 -1.3606048 -1.4416871 -1.3207929 -0.5541417 0.025041819 1.0169387 0.96343726
-1.86124 -2.3933082 0.11046732 -3.0093338 0.79003847 0.9441686 -0.8036227 -1.7701558
0.12550546 0.11174529 0.64229965 0.4970441 -0.3426244 -0.38819906 0.8301691 -0.13689598
-0.58526146 1.0102015 0.313552 -0.34015 -0.5728566 -1.1388447 -0.94441223 0.28929624
-0.62808084 0.12638532 -0.34705436 0.757607 0.79843897 0.34618878 0.23864041 0.64709276
-0.5570642 -0.06299498 -0.6402745 -0.059154492 -0.57959425 0.3309803 1.3378451 -2.1517239
1.3445321 1.8025116 -0.8779762 -0.3346785 0.19122605 0.34627247 1.0455781 2.703742

output_mask f4 [64]
00000000: 0000 803f 0000 803f 0000 803f 0000 803f
00000010: 0000 803f 0000 803f 0000 803f 0000 803f
00000020: 0000 803f 0000 803f 0000 803f 0000 803f
00000030: 0000 803f 0000 803f 0000 803f 0000 803f
00000040: 0000 803f 0000 803f 0000 803f 0000 803f
00000050: 0000 803f 0000 803f 0000 803f 0000 803f
00000060: 0000 803f 0000 803f 0000 803f 0000 803f
00000070: 0000 803f 0000 803f 0000 803f 0000 803f
00000080: 0000 803f 0000 803f 0000 803f 0000 803f
00000090: 0000 803f 0000 803f 0000 803f 0000 803f
000000a0: 0000 803f 0000 803f 0000 803f 0000 803f
000000b0: 0000 803f 0000 803f 0000 803f 0000 803f
000000c0: 0000 803f 0000 803f 0000 803f 0000 803f
000000d0: 0000 803f 0000 803f 0000 803f 0000 803f
000000e0: 0000 803f 0000 803f 0000 803f 0000 803f
000000f0: 0000 803f 0000 803f 0000 803f 0000 803f
1.0 1.0 1.0 1.0 1.0 1.0 1.0 1.0
1.0 1.0 1.0 1.0 1.0 1.0 1.0 1.0
1.0 1.0 1.0 1.0 1.0 1.0 1.0 1.0
1.0 1.0 1.0 1.0 1.0 1.0 1.0 1.0
1.0 1.0 1.0 1.0 1.0 1.0 1.0 1.0
1.0 1.0 1.0 1.0 1.0 1.0 1.0 1.0
1.0 1.0 1.0 1.0 1.0 1.0 1.0 1.0
1.0 1.0 1.0 1.0 1.0 1.0 1.0 1.0

weight f4 [16, 64]
00000000: a5bd bfbe e445 053f 10a0 1340 c2d0 8bbc
00000010: 6f77 ab3e 1590 4f3f 52ce dcbd 5d99 d5bf
00000020: d6e8 f13f e1d2 993f 92ea 143f 8cc9 7f3e
00000030: b324 fc3e 612e 3a3f e314 ec3f 04b2 c6bf
00000040: 6f0a cc3e 5c1b 7e3f 92e5 8fbd 9a9e 283f
00000050: bdc8 05bf aac5 b83f af0f 303f a0fd 85bf
00000060: 9d33 f1bd d721 da3f 4266 5cc0 760e 7c3e
00000070: 2464 eb3f 06f6 ddbe 96c1 3d3f a04f bd3f
00000080: e3bc 5c3e bdb3 2340 bde5 ebbf 3992 6fbe
00000090: 6949 a43d bdda 873e 5d22 173f 1c94 a4bf
000000a0: 38e9 b1bf a778 0bc0 2e02 ecbc cc44 393e
000000b0: 5c7b 1f3e db01 463f eb49 d83e a51f 0ebd
000000c0: a72c 10be 5489 c9be 5bbe 76bf 775c 00bf
000000d0: 1362 ab3f 0339 f93e 6db5 00bc d889 373e
000000e0: aaa5 923f c755 503f 712e 85bf a995 63bf
000000f0: 816f 963f 5a6b 3dbf d722 533f 3d39 2240
00000100: f60e 4a3f 34f4 07c0 8c40 07bf 4245 d53b
00000110: db61 96bf a4a7 cb3f 2f50 d43e 1eb1 823e
00000120: a119 15bf b419 443f b041 1abf 0922 e4bd
00000130: 9947 9abe 5c57 9e3e 255c 4a3f 0c3d 84bf
00000140: d39b 01be e771 12bf 7d2f b83e 03ed 7abf
00000150: 4cd4 113f cc40 b13b d195 60bd f452 4b3d
00000160: 2f0f 82bf 58c1 bebf 463f a63e ab48 14bf
00000170: 97e7 413d 554b 603d 2512 2dbe 8554 7b3f
00000180: cbed 0bbf 4741 30bd fc2e a33e 0126 f7bf
00000190: 7a71 573f e804 95bf 87fc e6bf 95bc 12bf
000001a0: e080 a8bd 08db 873f c633 be3f 653c be3f
000001b0: 092c de3f 82fb 853f 2283 bfbe 7577 43bf
000001c0: 313f 1a3f c901 0ec0 798e 923e cac6 b53e
000001d0: 2d8e d5bf 4022 8f3f c8d0 913f 9990 c33f
000001e0: b40f 3bbf 8f60 a3bd 3d9f e23f 6da9 af3f
000001f0: f006 e0be 3232 0abe d32d 1bbf 072b a73f
00000200: 1ca0 c4bf 1396 473d 367a da3f b81d 323f
00000210: 9509 2540 2be3 4cbe 170e 693e 9807 2a3f
00000220: e249 6b3c 33c2 88be bb68 02bf 861d 98bb
00000230: 5940 0b3e eebb ddbf 857b 353e a70a 46bf
00000240: ac59 acbe d5cc 083f 6edf 13be 763c 723f
00000250: f73c ff3d 4e52 8c3f 7917 b0be 116f d73d
00000260: 7683 11c0 4283 15bf 65b9 1c40 916d 813f
00000270: 9883 bdbf 4953 d2bf ee13 e6be 6044 f8bd
00000280: 70fd 8d3f c9d2 a43f a274 b2bf 2b27 003f
00000290: 79bf 51bf a8f2 9b3e bde3 c7bf e984 3cc0
000002a0: 8f6c 1d3e 02bb 893e c6e5 2a40 bd05 8b3f
000002b0: c639 f33e 94fe c7bf 728f 5f3f bc03 953f
000002c0: 8ab6 3ebf d17e 603f 4014 4d3f 2826 5c3d
000002d0: f16b 673f 6c0a 94bf 587a acbf 1ba7 b03f
000002e0: ebc5 9e3f 8374 623f 59f2 c6bd 527e 5cbf
000002f0: 72e1 5b3f 7715 ffbd 2fad 633f e7cc 0e3f
00000300: b03c e3bf 61f9 b73f 9c09 e1be 4932 363f
00000310: e375 433f 3310 113f 7712 1b3f d017 69bf
00000320: 1096 75bf f069 a63f 64ae c63f a7f8 6cbf
00000330: 0c08 2a3e 1d1a d53f 7f31 c13e dd0e c9bf
00000340: 5238 ce3e 8d22 96bc efda 02c0 fcb9 93be
00000350: c49f 3ebf 5eef 82bf c1f6 9d3f 3765 813e
00000360: 7b68 6ebf 0ef1 6e3f e7e5 66bf 1e18 fa37
00000370: e975 d8bd b511 223f 65ae a3bf a0c8 c33e
00000380: 4603 72bf ded1 e73e 4a25 d33c 12df e43e
00000390: 12a6 91be c83e 0bbf e287 623f 37cc 1ac0
000003a0: a088 bdbf f082 99bf 9e3c 00be 6566 163c
000003b0: 228e 00bf e9fb 5f3e 23a0 823f 5c53 25bd
000003c0: 3563 e03e adef 7f3e 5396 3cbe f6eb 67bd
000003d0: 0320 00c0 85b3 5fbf d936 05bf 7e49 2f3f
000003e0: eb8f ab3f 11eb 843f 50c2 2d3f df9a 443f
000003f0: e1ef 013f 9c6e 3bbf 8cd0 38bf 60ec 2ebf
-0.37449375 0.5205977 2.3066444 -0.017067317 0.33489558 0.81079227 -0.1078154 -1.6687428
1.8899181 1.201748 0.58170426 0.24979228 0.4924675 0.7272702 1.8443874 -1.5523076
0.3985171 0.992605 -0.07026209 0.65867007 -0.5225943 1.4435322 0.6877393 -1.0468025
-0.117774226 1.7041577 -3.4437413 0.24614891 1.8389935 -0.43351763 0.74123514 1.4789925
0.2155643 2.5578454 -1.8429486 -0.23395623 0.080218144 0.26534072 0.5903681 -1.2857699
-1.3899298 -2.179239 -0.028809633 0.1809265 0.15574402 0.7734658 0.42243895 -0.034698147
-0.14079534 -0.39362586 -0.9638421 -0.5014109 1.3389305 0.4867631 -0.007855755 0.17923677
1.1456807 0.81380886 -1.0404798 -0.8890024 1.1752778 -0.7399193 0.82475036 2.5347435
0.7892908 -2.12428 -0.52832866 0.0065085003 -1.1748613 1.5910535 0.41467425 0.25525755
-0.5824223 0.7660172 -0.6025648 -0.11139304 -0.3013275 0.30926025 0.7904685 -1.033113
-0.12657098 -0.5720505 0.3597373 -0.980179 0.56964564 0.0054093357 -0.054830376 0.049639657
-1.0160884 -1.4902754 0.3247015 -0.5792338 0.047340002 0.054759342 -0.16901453 0.9817584
-0.5465972 -0.043031003 0.31871784 -1.9308473 0.84157526 -1.1642122 -1.8045815 -0.57319003
-0.08227706 1.0613718 1.485955 1.4862181 1.7357188 1.0467379 -0.37404734 -0.7635415
0.6025267 -2.218859 0.28624323 0.35503227 -1.6684014 1.1182327 1.139184 1.5278503
-0.73070836 -0.079774015 1.7704846 1.372358 -0.43755293 -0.1349571 -0.606168 1.3060006
-1.5361362 0.048727106 1.7068546 0.695766 2.5787098 -0.20008533 0.22759281 0.6641784
0.014360877 -0.26710662 -0.50941056 -0.0046421913 0.13598765 -1.7322977 0.177229 -0.77360004
-0.33662164 0.5343755 -0.144407 0.94623506 0.124628 1.0962617 -0.34392908 0.10519231
-2.2736487 -0.5840341 2.4488156 1.0111562 -1.4805784 -1.6431667 -0.4493708 -0.121224165
1.1092968 1.2876827 -1.3941844 0.50059766 -0.8193279 0.3045857 -1.5616375 -2.9456122
0.15373443 0.26900488 2.6702743 1.0861126 0.47505015 -1.5624566 0.87328255 1.1641765
-0.7449728 0.87693506 0.80109024 0.053747326 0.9039908 -1.156568 -1.3474836 1.3800997
1.240415 0.8845903 -0.09714193 -0.8613025 0.8589088 -0.12455266 0.8893613 0.55781406
-1.7752895 1.4372979 -0.43952644 0.7117048 0.76351756 0.56665343 0.6057505 -0.9105196
-0.959321 1.300108 1.552197 -0.92566913 0.16604632 1.6648594 0.37733075 -1.5707661
0.40277344 -0.018327022 -2.0446126 -0.28852832 -0.74462533 -1.0229299 1.2340928 0.25272533
-0.93128175 0.9333657 -0.90194553 2.9813553e-05 -0.105693646 0.6330827 -1.2787596 0.38239002
-0.94536245 0.45277303 0.025774617 0.4470144 -0.28447014 -0.5439267 0.8848859 -2.4187143
-1.480732 -1.1993084 -0.12523124 0.009179686 -0.5021688 0.2187344 1.020512 -0.0403627
0.4382569 0.24993773 -0.18416719 -0.056621514 -2.0019538 -0.873833 -0.52036816 0.68471515
1.3403295 1.0384237 0.6787462 0.76798815 0.5075665 -0.7321565 -0.7219322 -0.6832943

weight f4 [64, 24]
00000000: 8475 6cbe 3d8f 9b3f 7992 babe d388 273e
00000010: 19fa 893e 77ce f3bf 5e0f d0bf b586 003e
00000020: e854 af3f 0114 2bbf bd43 033f e914 9dbf
00000030: 2768 9f3e ef59 73be bf5d 403f 6e61 01bf
00000040: 48ac df3e 5727 ac3f ddf1 ccbe bd36 e4be
00000050: 2b9a 4a3f aa58 17bf dc13 963f 0371 38bf
00000060: a960 7bbe fd3b 073d 63ac e83f 532f 773f
00000070: 974d 023f 49b2 3ebf f598 03bf 1b89 60bf
00000080: 675b 123f 181a b83f 5f42 76bf 1354 1f3d
00000090: 8ce5 d53e aee0 18bf 7bf0 8a3f e957 e9be
000000a0: 04d5 e7be 9778 b2bf c6d8 dfbe d840 14bf
000000b0: 110d 3d3f 2ba9 0840 e8a1 35bf 7ae6 563f
000000c0: 7bf7 953f 5741 a6bd 34c2 3840 c008 a4be
000000d0: da3e 48bf 455c ab3f 6852 493e 7188 3bbf
000000e0: cd57 df3f fe88 283e 9437 a9bf ae23 233f
000000f0: 5990 b63d acfa bebf c0c2 3e3f 7039 1ebf
00000100: e9d3 d7bf c6d1 8bbf 4453 a4bf 2cb6 24bd
00000110: 425f 393e 75b2 623f 5d08 70bf e2b4 913d
00000120: 7a8d d7be f724 643f 0ead f3be 50bd 2f40
00000130: 76cf a63e 2dbb ecbf 8991 52be 46bd 4e3e
00000140: c2c4 3cbe 08cc cfbe aff5 4e3d 8be5 fd3e
00000150: 27dd 623d 2b5b ae3f f85d 30c0 d69e 073e
00000160: 3b9a 1cbe a041 dbbe ef45 30c0 296d c53f
00000170: 1140 eabf 6e59 c8bf 56b0 b6be 38f3 6bbf
00000180: 8bd7 f7be 353a 14bf acc9 7bbf ba5a 743f
00000190: a51c b1bf 8635 8f3f be67 b9bf 2f42 dbbd
000001a0: a9d0 be3f 5877 c83e 0a39 593f f643 8bbf
000001b0: 53f1 9bbf 6dbb a2bf 2b51 4b3e 1279 a3be
000001c0: 3d16 bbbf 310b 77bf 484c 783e 6696 723f
000001d0: b4c9 133c 5347 1540 e78c 803f 5b72 ffbd
000001e0: 4af6 b0be 3434 1fbe 8aad 88bf c9d1 1bbf
000001f0: eef3 ff3f 188e 9f3f ebad 89be 959c 093f
00000200: 3fd1 e03f 4cc7 abbf e35a a53f 42ab 97bf
00000210: 75c3 d3be cb6e a7bf 4a95 823f 9255 04be
00000220: 4dc6 27be 9074 56bc aa34 0940 f85b 81bd
00000230: d3c0 dc3d d6c8 883f b7f2 80be e0e4 583e
00000240: ef50 d43e e631 fc3c 61af 62bf fb9c c43d
00000250: f9cd b43d dd19 da3d c1db b03e 2255 eabe
00000260: 92ec c03e 6f56 e73e e9eb 8d3d fa61 35bd
00000270: 4594 17bf fd5b 833f 5373 bcbe b106 4abf
00000280: 587f 1cbf 2332 b0bf dda6 8d3f 8e72 04c0
00000290: 7087 ea3e 6138 f63f 5380 e2bc dd5e 85bf
000002a0: f4a8 f5bf 6d9c bebf 4e44 21c0 e531 e63f
000002b0: b2b5 aebf b5ab 9c3f c6dc 953f 11c3 793f
000002c0: 4939 b4bf e528 b63f 72a3 9fbf 65c0 323e
000002d0: 7af2 163b 5b26 29bf 96a4 ecbd b056 c53f
000002e0: 12a9 d4be f163 863e 23a0 d6bf 4ad4 6cbd
000002f0: 75f6 2e3f 711e d4bf 9257 ca3f db2a 05c0
00000300: 4cdb 483f ea7e eb3f 360b 6240 ff52 45bf
00000310: b396 59be 4f41 10be ad78 a9bf 2abf 67bf
00000320: f715 9b3c 3a8e 9f3e 46e1 523f d5e2 69bf
00000330: 5288 0abe 59a3 abbf 08de 843f 68fb c83f
00000340: 88f6 41bf 2cd9 3ebf 0def 64bf f4d1 5dbf
00000350: eff7 0940 e6cb 023f 4860 c3bf 5613 923f
00000360: 7c32 2bbe e3e5 3ec0 544c 8b3f ccbf 08bf
00000370: a6cf a3bf f51a 20bf 072a 30bf 77cd adba
00000380: e291 b93f f28a 0abe 9640 ed3e 6bc3 c23e
00000390: bfea d23f ef16 f3bf 124f 9d3d 14e1 a13f
000003a0: dfa8 233d 4ad0 03c0 7afe 8fbf adbc 94bf
000003b0: e07f b9be 474d 3ebf b004 37be 4ce3 973f
000003c0: 2ede 773f 56c3 46bf 00de 4f3f 811a 0d3f
000003d0: afa8 0f3d f1e3 8f3f 9e53 b2be a81d d2be
000003e0: 3335 c7bf d5e8 a9be 085b 5d3f 65ed d4bf
000003f0: 39f5 953f 9130 e4bf 1ec4 b83f 58b4 963e
-0.23091704 1.2153088 -0.36439875 0.16360788 0.26948622 -1.9047383 -1.625469 0.12551387
1.3697786 -0.668274 0.51275235 -1.2272006 0.3113415 -0.23764776 0.75143045 -0.5053929
0.43686128 1.3449506 -0.40028277 -0.44573012 0.7914149 -0.59119666 1.1724811 -0.7204744
-0.24548592 0.033016194 1.8177608 0.96556586 0.5089964 -0.7449079 -0.5140527 -0.87709206
0.5717072 1.4382963 -0.96195024 0.03889854 0.41776693 -0.59717834 1.0854639 -0.45574883
-0.45279706 -1.3943051 -0.43720073 -0.57911444 0.7384806 2.1353252 -0.70950174 0.8394543
1.171615 -0.08117931 2.8868532 -0.32037926 -0.78220904 1.3387533 0.19660342 -0.7325507
1.744867 0.16458508 -1.3220086 0.6372632 0.08914251 -1.4920249 0.74515915 -0.6180639
-1.6861545 -1.0923393 -1.2837911 -0.040212795 0.18102744 0.88553554 -0.9376276 0.07114579
-0.42100126 0.89118904 -0.47592968 2.7459297 0.32580155 -1.8494622 -0.2056333 0.2018939
-0.18434432 -0.4058535 0.05052727 0.4958919 0.05538669 1.3621572 -2.7557354 0.13244185
-0.15293209 -0.42823505 -2.7542684 1.5423938 -1.8300802 -1.5652292 -0.3568141 -0.92168
-0.48406634 -0.57901317 -0.983546 0.9545094 -1.3836867 1.1188209 -1.4484785 -0.10705983
1.4907428 0.39153552 0.8485266 -1.0880115 -1.2183021 -1.2713448 0.19855182 -0.31928307
-1.4616162 -0.9650145 0.24247849 0.9476074 0.009020258 2.3324783 1.0043 -0.124729834
-0.34562904 -0.15547258 -1.067796 -0.6086698 1.9996316 1.2465239 -0.268905 0.5375455
1.7563857 -1.3420196 1.2918361 -1.1849139 -0.4136006 -1.3080686 1.020181 -0.12923267
-0.1638424 -0.013089314 2.1438394 -0.0631637 0.10778966 1.068629 -0.25185177 0.21181059
0.41467997 0.030785512 -0.88548857 0.09600254 0.08828349 0.10649464 0.3454266 -0.45768076
0.3768049 0.4518313 0.06929762 -0.04428289 -0.59210616 1.0262448 -0.36806735 -0.7891646
-0.6113181 -1.37653 1.1066548 -2.0694919 0.45806456 1.9235955 -0.02764908 -1.0419575
-1.9192185 -1.4891487 -2.519794 1.7983977 -1.3649199 1.2239901 1.1708 0.9756327
-1.4079982 1.423123 -1.2471755 0.17456205 0.002303271 -0.6607415 -0.1155483 1.541708
-0.4153524 0.26248124 -1.676762 -0.057819642 0.68344814 -1.657179 1.5807974 -2.0807407
0.7845962 1.8398106 3.5319343 -0.77079767 -0.21248893 -0.14087413 -1.3239952 -0.9052607
0.018931372 0.31163198 0.8237499 -0.91361743 -0.13528565 -1.3409225 1.0380259 1.5701723
-0.757668 -0.7455013 -0.8942726 -0.8664849 2.1557577 0.51092374 -1.5263758 1.1412151
-0.16718477 -2.9827812 1.0882668 -0.5341766 -1.2797744 -0.62541133 -0.6881413 -0.0013260086
1.4497645 -0.13529566 0.46338338 0.38039717 1.6477889 -1.8991374 0.07681097 1.2646813
0.03995597 -2.059588 -1.1249535 -1.1620079 -0.36230373 -0.74336666 -0.17872882 1.186624
0.96823394 -0.7764181 0.8119812 0.55118567 0.03507298 1.1241437 -0.3482942 -0.4103825
-1.556311 -0.3318545 0.8646703 -1.6634947 1.1715461 -1.7827321 1.443485 0.29434466

weight f4 [64]
00000000: 0a79 1ebd 0001 1fbd ad4d 1bbd ab5c 1dbd
00000010: ee6c 1f3d 1df2 1d3d ed5c 1a3d 1eb6 1c3d
00000020: 5614 0cbd 3db5 0dbd 5ed8 06bd fcdf 0bbd
00000030: b245 0c3d a38c 083d 53f0 083d ccf6 093d
00000040: 1957 103e 8002 0c3e 44a5 133e d544 0b3e
00000050: 7341 0cbe a1d3 12be bf39 0bbe d4a7 0dbe
00000060: 1904 583c e6ac 403c 71e8 5c3c f480 3c3c
00000070: 46e9 42bc f0a4 58bc cc7e 3abc 86df 45bc
00000080: ca62 a83d b092 a33d b0af aa3d 5963 a23d
00000090: 33e9 a3bd f7a6 aabd 9fe3 a1bd 3eed a4bd
000000a0: f636 603d 385a 6c3d 2911 643d 5a1e 6b3d
000000b0: e3a6 6fbd 3b33 6cbd 8713 67bd 9221 69bd
000000c0: 6943 a9be dea9 a9be 4b89 b0be 94df abbe
000000d0: 4d35 ab3e 3e50 b13e 0f04 ab3e ac99 ad3e
000000e0: 248b 9cbd 038b 95bd 1be2 a7bd 041d 95bd
000000f0: ade5 973d 603a a73d 9f89 953d 180e 9b3d
-0.03868965 -0.038819313 -0.037915874 -0.038418453 0.038922243 0.038560975 0.037686277 0.038259618
-0.03419908 -0.03459667 -0.032921188 -0.034149155 0.034246154 0.033337247 0.033432316 0.03368263
0.14095725 0.13672829 0.14418513 0.13600476 -0.13696842 -0.14338543 -0.13596247 -0.13833553
0.013184571 0.011759972 0.013483153 0.011505354 -0.011896437 -0.013222918 -0.01138277 -0.012077218
0.082219675 0.07986963 0.08334291 0.07929105 -0.080034636 -0.08332627 -0.079047434 -0.08053063
0.054739915 0.057703227 0.055680428 0.057401992 -0.058508765 -0.057666045 -0.056415107 -0.05691678
-0.33059242 -0.3313741 -0.34479746 -0.33569014 0.33439103 0.34631532 0.33401534 0.33906305
-0.076437265 -0.07301905 -0.08197423 -0.07280925 0.07416854 0.08165431 0.0730164 0.075710475

output_mask f4 [44]
00000000: 0000 803f 0000 803f 0000 803f 0000 803f
00000010: 0000 803f 0000 803f 0000 803f 0000 803f
00000020: 0000 803f 0000 803f 0000 803f 0000 803f
00000030: 0000 803f 0000 803f 0000 803f 0000 803f
00000040: 0000 803f 0000 803f 0000 803f 0000 803f
00000050: 0000 803f 0000 803f 0000 803f 0000 803f
00000060: 0000 803f 0000 803f 0000 803f 0000 803f
00000070: 0000 803f 0000 803f 0000 803f 0000 803f
00000080: 0000 803f 0000 803f 0000 803f 0000 803f
00000090: 0000 803f 0000 803f 0000 803f 0000 803f
000000a0: 0000 803f 0000 803f 0000 803f 0000 803f
1.0 1.0 1.0 1.0 1.0 1.0 1.0 1.0
1.0 1.0 1.0 1.0 1.0 1.0 1.0 1.0
1.0 1.0 1.0 1.0 1.0 1.0 1.0 1.0
1.0 1.0 1.0 1.0 1.0 1.0 1.0 1.0
1.0 1.0 1.0 1.0 1.0 1.0 1.0 1.0
1.0 1.0 1.0 1.0

weight f4 [1920]
00000000: 0acc 1e3f 58af e53d c3f7 343f 9fcc 723e
00000010: 1dd5 3ebf a5f8 2ebf c0f4 943f c551 5ebf
00000020: d260 da3e 5175 d03f 73c0 aebf 8c88 eb3e
00000030: 9586 283e 8469 ccbe c490 c23f b472 cc3e
00000040: 9817 a83f f1d3 4f3f 5115 1bbe 3396 b8bf
00000050: 246b 55bf a8ac 4fbf 48be c53f 84e7 833f
00000060: f0de 94bf bc9f d2be 3b62 0ebf 9dc1 ba3f
00000070: 554d 69be 1a34 41bf 0f3e 0a40 26ad 103f
00000080: 9f6e 82be 645e 043f f3fe 913e 0911 9cbf
00000090: 3fe1 fdbe 257c 4b3f 8322 7b3f c76d 813f
000000a0: d87f fd3e 746f 66be 7700 383d 9c71 48be
000000b0: 8243 0dba 7d42 1cbf 15e0 4ebf 6a0f 79bf
000000c0: 7fbc 683f f2d5 0f3f 6143 cdbf 68d8 fb3e
000000d0: b0ae 9dbf e0ff 9bbf 1000 c2be d2ab 32be
000000e0: f39e 1f3f d60f fb3e 0fa2 803d ea83 9c3f
000000f0: fcb8 92bf 7702 b13f 6d13 a43e 53a8 debf
00000100: 7a2c 5e3f a36d 673e 0397 c7be 836e 983d
00000110: 9642 343e f549 8ebf 0815 6f3f 4e4c a23e
00000120: de27 e6bf 4e0b 2f3f 4f30 a63f 2b97 583e
00000130: 771e 4bbf 89ee f93e 1cab 6e3d 5cd8 103f
00000140: 127e 65bf 6180 a33f b583 52bf 6c47 923f
00000150: 54b4 efba b249 fabe 9518 f83e f676 72bf
00000160: 55cc afbe 29e0 303f bb2e fdbe f4bf 463d
00000170: 9f14 243f c10c 47bf 391d 43bf 03ab 9dbe
00000180: 6d8d ff3d bcc4 45bf 1183 eabf e712 863f
00000190: 5d2b f2be f9a1 aebf 1850 3a3f 096d 963d
000001a0: ca37 653f 8ccf b13e 5cdc 453f 5fd5 9dbe
000001b0: 827e 2ebe 510f f0bc 57a2 6e3f 3357 b43c
000001c0: 9cf6 2f3f 1426 7dbf 6b25 b6bf 48ef 1dbf
000001d0: 2f02 573f 1269 e23e 8957 c33f a81a c4be
000001e0: 433e 15c0 8f99 65bc 2b1b fabe c911 4a3f
000001f0: e85c b9bd 686f 063f 3711 963f 2fdd 9fbf
00000200: b462 253f 65ec 52be 20ef 563f 2162 5dbd
00000210: fbc8 fdbd 6b89 333f cac8 00bf c15f 493e
00000220: 3b3b 0f40 6087 9b3f 79ee 253f 0bae 1a3f
00000230: 9490 063e 987d 24bf 3f10 b1be bd03 c6bf
00000240: 8cc7 27bf 6da8 063b 5fff e0bf 3554 c93f
00000250: 6f9a d33f 043d 593f 26dc fe3f 6cfc 05bf
00000260: d1fd c23e 04a6 fbbe 21a0 31bf 9dfe 8ebd
00000270: 29f3 7cbf 7d28 5b3f 4856 cdbf 834b 18bf
00000280: 6799 3cbf 870e 613e 6669 39bf 9aa5 6abf
00000290: 7c9c 6cbf 661f 9bbe 8a31 98be fab7 6ebf
000002a0: 97e7 96bf a061 80bf 43c7 a73f 61af f0be
000002b0: 23cc 6e3f 34fc 59bf c3af 493e 3193 06c0
000002c0: 5f5a 053f 0627 8fbd 71b8 5b3f ccd9 f4be
000002d0: 22d3 3440 5465 2e3f 2c0b 1ac0 71ca 76bc
000002e0: d392 90be 1635 0dbf 0bad d63f 232f 353f
000002f0: 16b5 073f 1913 843e a1fd 4c3e f978 4e3f
00000300: 1cbd 53bf 83c3 c03f 7408 c13f 63c0 5dbf
00000310: 17f2 483f 0ae6 61bf f8fd 473f 2151 cfbf
00000320: 711d 6abf 0cf5 a1be f233 d6be 86b8 0dbf
00000330: a575 8ebe 1535 283f 0a18 18bf 8f46 abbe
00000340: 6901 1abf b44f ae3d c608 3cbf 409f c3bf
00000350: 9446 53bf 155e 123e d9dd 8f3e 894f b33e
00000360: ba57 bd3c f02a 85bf 37d1 83bd 4f32 f83d
00000370: b751 8e3e c35c e63e d012 8c40 07c2 79bf
00000380: f85d 0bbf 298d 833f 70b8 cabf 6383 933f
00000390: a64b f4be a751 c23c 6a4f b33e 6a94 2cbf
000003a0: e8f1 a2bf f651 183f d8d5 6dbf f0e0 d7bf
000003b0: e6f3 4e3e e0d9 ad3f 65e1 293f a4d5 eb3f
000003c0: d662 a53e cea0 063f 833f fe3e d703 febe
000003d0: 1771 533e 7d9f 7bbf 193c 993f ae29 12bf
000003e0: d68c 8cbf 9db2 153e 48cd 723f a4d9 8dbe
000003f0: 580d bb3f 3c9d 89bd a7b2 fa3f 5428 e6be
0.6203009 0.11215085 0.70690554 0.23710869 -0.74543935 -0.6834815 1.1637192 -0.8684352
0.42651993 1.6285802 -1.3652481 0.46002614 0.16457589 -0.39924252 1.5200429 0.39931262
1.31322 0.8118277 -0.1514485 -1.4420837 -0.8336661 -0.8112283 1.5448694 1.0305028
-1.1630535 -0.41137493 -0.5561864 1.4590336 -0.22783406 -0.75470126 2.1600378 0.56514204
-0.25475022 0.5170653 0.28514823 -1.2192699 -0.49585912 0.79486305 0.98099536 1.0111626
0.495116 -0.22503453 0.04492232 -0.19574589 -0.00053887826 -0.61038953 -0.8081067 -0.97289145
0.9091262 0.5618583 -1.6036187 0.49188542 -1.2318935 -1.2187462 -0.37890673 -0.17448357
0.6235191 0.4903552 0.0628091 1.2227757 -1.1462703 1.3828877 0.3204607 -1.7395118
0.86786616 0.22600417 -0.389824 0.074429534 0.17603526 -1.111632 0.93391466 0.3169884
-1.7980917 0.68376625 1.2983493 0.21151416 -0.7934336 0.488148 0.05826865 0.5658014
-0.89645493 1.2773553 -0.8223222 1.1428046 -0.0018287995 -0.4888435 0.48456255 -0.9471277
-0.3433558 0.6909204 -0.49449715 0.048522905 0.64093965 -0.77753836 -0.76216465 -0.30794534
0.12478147 -0.7725332 -1.8321248 1.0474519 -0.4729871 -1.364318 0.72778463 0.073450156
0.8953825 0.34728658 0.77289367 -0.30826852 -0.17040446 -0.029304178 0.9321646 0.022014236
0.6873567 -0.9888623 -1.4230169 -0.6169324 0.83987707 0.44220787 1.5261089 -0.38301587
-2.3319252 -0.014013662 -0.48848853 0.7893339 -0.090509236 0.5251374 1.1724004 -1.2489375
0.64603734 -0.2059799 0.83958626 -0.05404866 -0.123918496 0.7013156 -0.5030638 0.19665433
2.2379901 1.2150688 0.64817005 0.6042182 0.1314109 -0.6425414 -0.34582707 -1.5469891
-0.6553886 0.0020547167 -1.7577933 1.5728823 1.6531504 0.8485873 1.9910934 -0.5233829
0.38084272 -0.49150097 -0.6938496 -0.069821574 -0.9880853 0.85608655 -1.6041956 -0.5949022
-0.73671573 0.21978198 -0.7242645 -0.9165894 -0.92426276 -0.30297393 -0.29725295 -0.93249476
-1.1789426 -1.0029793 1.3107685 -0.47008803 0.9328024 -0.85150456 0.19695954 -2.1027339
0.5209102 -0.06989865 0.8582831 -0.47822416 2.8253865 0.68123364 -2.4069319 -0.015062914
-0.28237018 -0.5515913 1.6771559 0.7077505 0.5301069 0.2579582 0.20018627 0.8065334
-0.82710433 1.5059665 1.5080705 -0.86621684 0.784944 -0.88241637 0.781219 -1.6196634
-0.91451174 -0.31632268 -0.41836506 -0.55359685 -0.2782413 0.65705997 -0.5941168 -0.3345227
-0.601584 0.08511296 -0.7345089 -1.5282974 -0.8252957 0.14293702 0.28098944 0.35021618
0.02311312 -1.0403728 -0.06436389 0.121189706 0.27796718 0.44992647 4.3772964 -0.9756169
-0.5444026 1.0277454 -1.5837536 1.1524471 -0.47713965 0.023720575 0.35021526 -0.6741396
-1.2730074 0.5950006 -0.92904425 -1.686552 0.20210227 1.3582115 0.6635955 1.8424573
0.32301968 0.5258912 0.4965783 -0.49612305 0.20648609 -0.98290235 1.1971465 -0.5709485
-1.098048 0.14618917 0.94844484 -0.2770511 1.4613447 -0.06719443 1.958577 -0.44952643

output_mask f4 [64]
00000000: 0000 803f 0000 803f 0000 803f 0000 803f
00000010: 0000 803f 0000 803f 0000 803f 0000 803f
00000020: 0000 803f 0000 803f 0000 803f 0000 803f
00000030: 0000 803f 0000 803f 0000 803f 0000 803f
00000040: 0000 803f 0000 803f 0000 803f 0000 803f
00000050: 0000 803f 0000 803f 0000 803f 0000 803f
00000060: 0000 803f 0000 803f 0000 803f 0000 803f
00000070: 0000 803f 0000 803f 0000 803f 0000 803f
00000080: 0000 803f 0000 803f 0000 803f 0000 803f
00000090: 0000 803f 0000 803f 0000 803f 0000 803f
000000a0: 0000 803f 0000 803f 0000 803f 0000 803f
000000b0: 0000 803f 0000 803f 0000 803f 0000 803f
000000c0: 0000 803f 0000 803f 0000 803f 0000 803f
000000d0: 0000 803f 0000 803f 0000 803f 0000 803f
000000e0: 0000 803f 0000 803f 0000 803f 0000 803f
000000f0: 0000 803f 0000 803f 0000 803f 0000 803f
1.0 1.0 1.0 1.0 1.0 1.0 1.0 1.0
1.0 1.0 1.0 1.0 1.0 1.0 1.0 1.0
1.0 1.0 1.0 1.0 1.0 1.0 1.0 1.0
1.0 1.0 1.0 1.0 1.0 1.0 1.0 1.0
1.0 1.0 1.0 1.0 1.0 1.0 1.0 1.0
1.0 1.0 1.0 1.0 1.0 1.0 1.0 1.0
1.0 1.0 1.0 1.0 1.0 1.0 1.0 1.0
1.0 1.0 1.0 1.0 1.0 1.0 1.0 1.0

weight f4 [1152]
00000000: acdc e93f dbf2 4abf 2a15 6a3f 9e57 873f
00000010: fd43 973f 9f68 debe 671d 7ebf 117a 2e3f
00000020: 2503 bb3d a3ff 023f 47d5 ad3f 1669 603f
00000030: 51d1 fbbe e3b0 8ebf 067c 89bf 7eff 6abf
00000040: 67cc bcbe 0ad2 82be 7785 6fbf 387d e63c
00000050: 8e3d e2be c5ee 963f c6d6 4b3f a07d ac3d
00000060: a76a 0b3f d2ac cbbf cd59 6c3e b4ac 473d
00000070: c162 ef3c 94c1 5e3e 0aa3 21bf 1b54 1e3e
00000080: fc49 143d 965b 56bf 2a3c 363d f788 0cbe
00000090: 128c 033f 8458 813f 6b23 143f 1aa2 fbbe
000000a0: ab67 a73e fdec a53f 9acf f83e 22d5 d23e
000000b0: af7d e3bf d715 79be 352d ba3e 47c6 41be
000000c0: a36e 04c0 e2bb 01bf a11a ff3e 7320 2fbd
000000d0: 0b8d 393f 54a6 463e 7ac1 1e40 cb55 d33f
000000e0: d98b a7be c9f1 c53e e4c3 f63b f348 c13d
000000f0: e71e 913e 6610 c4bc aff1 5fbe 167d 583f
00000100: 12af 463e 1a82 353e f752 023f 24aa 8abf
00000110: c886 c53f 8f8b 3c3f 9a0d cabe b829 de3e
00000120: a0a4 1140 c36a cd3e b901 6f3e f91a aebe
00000130: 65ef 93bf 6b17 313d bfa5 513f 7876 cdbf
00000140: d536 b23e 5fed a9bf a2f4 0fbd 63e5 50bf
00000150: a1f4 11be a67c 0d3e bee0 00be e59b b9bc
00000160: b7fa e5bd ad9b 72bf 5522 4ebe f8e6 9bbf
00000170: cf2d 05bf ca86 7abf 95dc 1c3f e429 973e
00000180: 71aa 97bf 58c6 603f 73a9 06bf 8cfb 4e3f
00000190: a04a 15bf 58b6 643f 7204 51bf f46b e6be
000001a0: c71a 393e 7681 eb3e e941 1fbf 94eb 3840
000001b0: c289 e93e 4ead 933f a461 51bf b2ac 2fc0
000001c0: 65ff a13e 8eeb 7c3f a8a4 8d3f 5595 81bf
000001d0: 573c c7bf a8f6 08bf 553b 4dbe 580f e5bf
000001e0: 40ac 043f efba a73f cb8b aabe eb38 8e3f
000001f0: dd06 aebe 31d8 29bf bbd5 5e3f b799 9d3f
00000200: b1f0 11bf a32a 193f 7737 52bf e298 2c40
00000210: 3481 46be 9500 fb3e fda5 a1bf e089 6fbf
00000220: 60fa e33e d044 5d3f 4d74 3c3f ccff e53e
00000230: 6311 a2bf 2364 f6be eba2 5a3f a9b8 053f
00000240: b46a 77bf 3d94 353f 08d9 9abf c59e 603f
00000250: b690 073f 072d 3abf d17f 8dbf 494d b4bf
00000260: 5176 783e 34cb 55bf 6215 24bf faf7 e33f
00000270: 3dcc 2a3f dc92 9fbf 47ae 733e 1fa5 253e
00000280: 352b 873f c7b6 013f 42c7 27be 192c a0bf
00000290: 94f0 2bc0 00bc 0e40 6834 d23e df95 53be
000002a0: b197 c73e cba4 d0be b362 773f 58d2 63bf
000002b0: 3498 7e3f 182b 5bbf f405 253f 13d9 57bf
000002c0: 3b59 48bf 4734 f13f 9864 ecbd c959 66bf
000002d0: 7531 1540 cb36 1240 7e0b 9b3e 8e5c 09bf
000002e0: 08f0 063d 91d8 47bf e6b4 80bf 3c11 c33f
000002f0: 5d05 0040 8c7b 193f da50 4c3f a578 813e
00000300: 8410 e1bf 00c8 ca3e 8890 263f 7a62 3fbe
00000310: 903a 263f 5c65 773f bd12 8e3e 7bad a13e
00000320: ff32 923f cee1 92be 5bd9 c4bd f043 92be
00000330: 6af8 e73f 7e40 573e ee26 35bf dd29 e63f
00000340: a2df 613f 5edd 5a3e 3620 eabe 8243 253f
00000350: e023 d6bf b594 0fbe c7cd e2bd 6b60 9f3f
00000360: 542a 8b3e 632c 5bbf 57e8 553e b60d 9fbf
00000370: 59b7 7dbf 5166 593d e569 45bf 115a a83f
00000380: f9d7 403f 5069 7c3e d3f9 c5be eb2b c13f
00000390: 4638 c5be aef1 fc3d 86a9 ab3d 0ac5 de3f
000003a0: f93a 06c0 5bb5 ba3f befe 673f 0643 cabe
000003b0: 347c cfbf 2ecc 613f b16b 23bf f5d0 3f3b
000003c0: b4b2 b6bf 42c3 a5bf 9517 1c3f a8ea 353f
000003d0: 7b1e dcbf a5c7 a9bf 55b0 8bbf 3325 e0be
000003e0: beed ed3f 2494 5dbf de7f ae3e 30d8 20bf
000003f0: 6c2e a5bf 7af6 7d3f 62db 693f 616e 803f
1.8270469 -0.7927682 0.91438544 1.0573614 1.1817623 -0.43439195 -0.99263614 0.6815501
0.09131459 0.5117132 1.3580712 0.8766035 -0.49183133 -1.1147732 -1.0740974 -0.917961
-0.36874697 -0.25550872 -0.93563026 0.02813588 -0.44187587 1.1791617 0.79624593 0.084223986
0.54459614 -1.5912116 0.23081131 0.048748687 0.029221894 0.21753532 -0.631394 0.15461771
0.03620337 -0.837335 0.04449097 -0.13724123 0.51385605 1.0105138 0.57866544 -0.4914711
0.3269628 1.2962948 0.48595887 0.41178232 -1.777273 -0.24324737 0.36362615 -0.18923293
-2.0692527 -0.5067731 0.49825004 -0.042755555 0.7248084 0.19399387 2.4805589 1.6510557
-0.32723883 0.3866103 0.007530676 0.09437742 0.2834389 -0.0239336 -0.21869539 0.84565866
0.19402722 0.17725411 0.50907844 -1.0833173 1.5431757 0.7365045 -0.39463502 0.43391204
2.275673 0.40120515 0.23340501 -0.34004954 -1.1557432 0.043235224 0.81893533 -1.6051779
0.3480746 -1.3275565 -0.03514541 -0.81600016 -0.14253475 0.13817081 -0.12585732 -0.022657344
-0.11229461 -0.9476879 -0.20130284 -1.2179861 -0.52023023 -0.9786192 0.6127408 0.29524148
-1.184889 0.8780265 -0.5260231 0.8085258 -0.58316994 0.89340734 -0.8164741 -0.45004237
0.18076621 0.45997208 -0.62209946 2.8893785 0.45612913 1.1537263 -0.8178961 -2.7449155
0.31640163 0.9879693 1.1065874 -1.0123698 -1.5565289 -0.5350137 -0.20042165 -1.7895308
0.5182533 1.3103923 -0.3330978 1.111112 -0.3398961 -0.66345507 0.87044877 1.2312535
-0.5700789 0.59830683 -0.8211588 2.6968312 -0.19385225 0.49023882 -1.2628781 -0.93569756
0.44526958 0.86433125 0.7361496 0.4492172 -1.2661556 -0.48123273 0.85404843 0.52234894
-0.9664719 0.7092932 -1.2097483 0.87742263 0.52955186 -0.72724956 -1.1054631 -1.4086086
0.24263884 -0.8351319 -0.6409513 1.7810051 0.6671789 -1.2466693 0.2379695 0.1617627
1.0560061 0.5066952 -0.16384605 -1.2513458 -2.6865587 2.2302246 0.41055608 -0.2066264
0.3898292 -0.40750727 0.9663498 -0.88992834 0.99450994 -0.8561263 0.6446221 -0.84315604
-0.78261155 1.8844079 -0.11542624 -0.8998075 2.3311436 2.2845943 0.30282205 -0.5365685
0.032943755 -0.7806483 -1.0055206 1.5239635 2.0003273 0.5995414 0.7981087 0.25287357
-1.7583165 0.39605713 0.6506429 -0.1868991 0.6493311 0.9663904 0.2774867 0.31577668
1.1421813 -0.286879 -0.0961177 -0.28567457 1.8122685 0.21020696 -0.70762527 1.7981526
0.8823186 0.21373507 -0.457277 0.64556134 -1.6729698 -0.14021571 -0.11074405 1.24513
0.2718073 -0.85614604 0.20889412 -1.2426059 -0.9910789 0.053076092 -0.7711471 1.3152486
0.7532955 0.24649549 -0.38667163 1.5091528 -0.38519496 0.12350784 0.083819434 1.7403882
-2.0973494 1.4586595 0.9062308 -0.3950426 -1.6209779 0.8820218 -0.638362 0.0029268835
-1.4273286 -1.2950213 0.60973483 0.7106118 -1.7196802 -1.3264052 -1.0913187 -0.4377838
1.8588178 -0.8655417 0.3408193 -0.62829876 -1.2904792 0.9920422 0.91350377 1.0033685

output_mask f4 [52]
00000000: 0000 803f 0000 803f 0000 803f 0000 803f
00000010: 0000 803f 0000 803f 0000 803f 0000 803f
00000020: 0000 803f 0000 803f 0000 803f 0000 803f
00000030: 0000 803f 0000 803f 0000 803f 0000 803f
00000040: 0000 803f 0000 803f 0000 803f 0000 803f
00000050: 0000 803f 0000 803f 0000 803f 0000 803f
00000060: 0000 803f 0000 803f 0000 803f 0000 803f
00000070: 0000 803f 0000 803f 0000 803f 0000 803f
00000080: 0000 803f 0000 803f 0000 803f 0000 803f
00000090: 0000 803f 0000 803f 0000 803f 0000 803f
000000a0: 0000 803f 0000 803f 0000 803f 0000 803f
000000b0: 0000 803f 0000 803f 0000 803f 0000 803f
000000c0: 0000 803f 0000 803f 0000 803f 0000 803f
1.0 1.0 1.0 1.0 1.0 1.0 1.0 1.0
1.0 1.0 1.0 1.0 1.0 1.0 1.0 1.0
1.0 1.0 1.0 1.0 1.0 1.0 1.0 1.0
1.0 1.0 1.0 1.0 1.0 1.0 1.0 1.0
1.0 1.0 1.0 1.0 1.0 1.0 1.0 1.0
1.0 1.0 1.0 1.0 1.0 1.0 1.0 1.0
1.0 1.0 1.0 1.0
