src/graphite/pretrained_models/denoiser/SiO2-denoiser.pt (torch, 581531 bytes, 37 tensors)

weight f4 [2, 8]
00000000: 005c 6fbf 13df d0bf aea4 353f c675 1ec0
00000010: 74dd 823e ab8b 963f 7e7b cdbf aaa3 81be
00000020: 3182 c63f 3ab1 b2bd c67e 923f 65c2 75bf
00000030: 9771 f53f 594b 3b3f f2b8 9c3f dd01 3ebf
-0.93499756 -1.6318077 0.70954406 -2.4759383 0.2555958 1.1761373 -1.6053312 -0.25320178
1.5508481 -0.087252095 1.1444938 -0.9599975 1.917529 0.73161846 1.2243941 -0.74221593

weight f4 [2, 8]
00000000: 4e45 333e 8989 04bf 78c3 c8be 36c2 02bf
00000010: d260 f03d e874 483f e5fb cc3f b74d 8bbf
00000020: 258a ca3f d0b8 b7bf 1704 66bf 6953 83bf
00000030: 9707 973f 1df1 b5be eabd 253e 58e5 663f
0.17506906 -0.5177236 -0.3921163 -0.5107759 0.11737217 0.78303385 1.6014372 -1.0883092
1.5823408 -1.4353275 -0.8984999 -1.025983 1.1799191 -0.35535517 0.16185728 0.901937

weight f4 [1280]
00000000: da71 37bf faf6 acbe e02d 65bf f761 2b3d
00000010: 960a a2bf ad0e 5abe 5482 f2bf 05dd 2e3f
00000020: 0528 d0be 76d0 a7be 4d55 0dbf 7929 8ebf
00000030: e57e d43f e5fa 413f 9e29 473f 3f4e 59bf
00000040: a795 f13e 2fe7 aebe 831f 9a3c d3c3 8e3f
00000050: abe5 8c3f f87b c5bf 0fa8 75be b4c3 ec3d
00000060: e788 953e 8618 3bbf 6e2c 9cbe e3a8 be3b
00000070: 7586 04bf db04 03bf 90fb a53e 66d5 da3e
00000080: 36a2 2f3e 2281 a73f 4403 943f c8ef f0be
00000090: 11b6 933f b579 9dbf 5939 9fbf 5ce6 df3d
000000a0: fe45 3a3f 8ec2 a33f 41b1 6f3c 07fc 2fbf
000000b0: bc76 e73e 014c 2b3f 2a85 933d 439e bfbe
000000c0: b3e1 a7bf 35e8 6e3e 80f0 3cbf bf3f de3f
000000d0: e6e2 923f 6647 85bf e03a babf 3481 be3f
000000e0: 3750 983f 0637 9c3f 4c0c 983f 402d 32bf
000000f0: 0ace 393f 6d41 a03f e544 0cbf 9d7e 14c0
00000100: 54f6 f23f 44f7 f8be cdf7 0e3e af12 353f
00000110: 6d73 4cbf 86d0 cd3f 8bd8 963f 67fe 51bd
00000120: 2a68 e73f 1d3d 80be d08f bcbd 8104 903d
00000130: a25d 533f ffa0 81bf 15a4 0340 ddbc 6b3e
00000140: 783d 98be 161c 703e e3a4 943e 56d2 2d3e
00000150: 2f6c cabf 6797 fabd 8f53 cb3f 9d32 adbf
00000160: 881b 9bbf 3799 693f ab47 4abf db2e 06bf
00000170: edde b5bc 0776 2c3e f0a1 ae3f d937 b73f
00000180: f105 ddbf 83eb 77be 0dd8 4c3e 88bd 8b3d
00000190: a9d8 4d3d 65b5 25bf 4074 d63f 93a4 1b3e
000001a0: ec7f bdbf 8717 c6bd 3b60 92bf 3687 7e3d
000001b0: 0309 203e a5d0 a03e 7cb6 933d 7be2 bbbf
000001c0: 5468 263f 3826 9fbf 7dfb 1cbf e119 1cbf
000001d0: 22fb dcbf f9f6 87bf 445b c9be 4b54 d6be
000001e0: ccfc 123e c072 96be 1fa7 f83f e5e7 dcbf
000001f0: a81d 13bf df42 89bf ddbb 1b3f 35bd 4cbf
00000200: cfbe f63e 68d1 b4bd 2e33 a63e e076 0f3f
00000210: 12be c8be bea8 f03f a9cc 363f bc42 533f
00000220: 589a b23e 2297 a03c 66e5 a1bf 29b8 b33e
00000230: cea1 00bf a66c 093f 9829 f8be cb71 b2be
00000240: 3dee c03f 46dc 963e 0648 7e3f 9b30 84bf
00000250: 868a 963e 4659 48be 0a81 ecbe bd64 1e3f
00000260: 12c7 373d 7ec6 5cbe 9fb6 2b3f bf21 acbf
00000270: ccd5 223f fcf3 8fbf 8b09 11bf dac4 d5be
00000280: 5d2c 4f3d f8a6 20bf 7985 893f 7047 97bf
00000290: fdec 64bf 801f 9d3f a541 97bf 9961 f03e
000002a0: 2a1e b4be 9aec e2bd 9fc9 b3bf c255 2b3f
000002b0: 28bf f7be 8da8 d3bf b94f 923f b871 0e3f
000002c0: 90b2 58bf 55ae 903e 9548 febe 1dac cd3e
000002d0: 44f0 77bf 7c02 923f 6cb0 b8be 99db 5b3f
000002e0: da60 383e 8729 02c0 78ea e03e 88b3 293f
000002f0: 6144 fa3e 4973 853e 5bf0 17be 0ed5 cb3f
00000300: 4e3c 3abf 490e bc3e e4f0 ecbf 73a5 293e
00000310: 1d01 1e3f c6c0 6f3f 820e 8d3f a60f c73f
00000320: eac1 40be 8bcf 0ebf 4736 633f d039 75bf
00000330: feb8 4a3f 3a8f 03bf 6d86 4dbe dd03 6dbf
00000340: fa7e 1b3f 574c a13e 24a9 d53f b3b1 523f
00000350: 7731 f9be ec99 21bf b34b 3cbf acba b13e
00000360: c699 4540 53ed 403f 12e2 0bbe 6181 3e3f
00000370: 084c 7bbf e022 c33d 9ad4 9dbe 9b88 71bf
00000380: a037 d43e 3b21 fb3f 1f92 263f 82c0 0cbf
00000390: fdb4 3cbf ba64 82bf 8b9f 383f 71c3 2dbf
000003a0: 1f5a 77be 4e80 543e 2d1a c53f 00db a83f
000003b0: 751e bbbf 8bea 803f 631b ce3e 7d82 eabe
000003c0: 58b1 a73f 9c07 92bf 3868 e2bf abad 15bf
000003d0: 3f21 61bf 5fe6 803e 3683 1c3d e458 83bb
000003e0: 35f0 26bf e9f3 9d3f e427 1dbf af57 063e
000003f0: 67df a93f 2f36 f2bd e7d8 05bf 6249 cbbf
-0.716581 -0.33782178 -0.89523125 0.041841473 -1.265948 -0.21294661 -1.8946023 0.68306
-0.40655532 -0.3277623 -0.55208284 -1.1106406 1.6601225 0.7577346 0.7779788 -0.8488502
0.47184488 -0.34160754 0.018813854 1.1153511 1.1007589 -1.5428457 -0.2398989 0.11560765
0.2920601 -0.73084295 -0.30502647 0.0058184727 -0.51767665 -0.51179284 0.3241849 0.42740935
0.17151722 1.3086283 1.1563497 -0.4705794 1.1539937 -1.2302767 -1.2439376 0.109326094
0.7276305 1.2793748 0.014629663 -0.6874394 0.45207775 0.6691285 0.072031334 -0.37425432
-1.3115753 0.23330767 -0.73804474 1.7363204 1.1475494 -1.0412414 -1.4549217 1.488318
1.189948 1.2204292 1.1878753 -0.69600296 0.72580016 1.2519966 -0.54792625 -2.3202279
1.8981423 -0.4862615 0.13961716 0.70731634 -0.79863626 1.6079261 1.1784834 -0.051268008
1.8078663 -0.25046626 -0.092071176 0.07032109 0.8256475 -1.0127257 2.0568898 0.23021264
-0.29734397 0.23448214 0.2903205 0.16974768 -1.5814265 -0.12235909 1.5884875 -1.3531071
-1.2117777 0.9124941 -0.79015607 -0.52415246 -0.022201026 0.16841899 1.3643169 1.4313918
-1.7267438 -0.24210934 0.20004292 0.068232596 0.05025545 -0.6472991 1.6754227 0.15199499
-1.4804664 -0.09672456 -1.1435617 0.062140666 0.15628438 0.31409183 0.072125405 -1.4678491
0.6500294 -1.2433538 -0.6132124 -0.6097699 -1.726414 -1.0622245 -0.39327443 -0.41861185
0.14354247 -0.29384422 1.9426001 -1.7258269 -0.57467127 -1.0723532 0.6083353 -0.79976207
0.4819245 -0.088290036 0.32460922 0.56040764 -0.39207512 1.8801496 0.71406037 0.82523704
0.3488338 0.019603316 -1.2648132 0.3510144 -0.50246894 0.5368141 -0.48469234 -0.34852442
1.5072705 0.2946493 0.9932865 -1.0327333 0.2940256 -0.19565305 -0.461922 0.61872464
0.044867583 -0.21560094 0.6707553 -1.3447798 0.6360748 -1.1246333 -0.56655186 -0.41751748
0.050579417 -0.62754774 1.0743858 -1.1818676 -0.89424115 1.2275238 -1.1816908 0.4694946
-0.35179263 -0.110802844 -1.4045905 0.6692773 -0.48388028 -1.6535813 1.143058 0.5564227
-0.84647465 0.28258005 -0.4966475 0.40170375 -0.9685099 1.1407008 -0.360721 0.85881954
0.18005696 -2.0337846 0.43928885 0.6628957 0.48880294 0.26064518 -0.14837782 1.5924394
-0.7274827 0.3672965 -1.8511014 0.1656702 0.6172045 0.93653524 1.1020052 1.555165
-0.18823972 -0.55785435 0.88754696 -0.9579134 0.79188526 -0.5139042 -0.2007081 -0.9258402
0.60740626 0.31503555 1.6692243 0.823024 -0.4867055 -0.6312549 -0.7355301 0.34712732
3.0875106 0.7536213 -0.13660458 0.74416167 -0.9816289 0.09528136 -0.30826265 -0.9434907
0.41448689 1.9619516 0.65066713 -0.54981244 -0.73713666 -1.0186989 0.72118443 -0.67876345
-0.24155472 0.2075207 1.5398613 1.3191833 -1.461867 1.0071577 0.4025527 -0.4580268
1.3100996 -1.1408572 -1.7688055 -0.5846812 -0.87941355 0.2517576 0.03821107 -0.0040083993
-0.65210277 1.234006 -0.61388993 0.13119386 1.3271302 -0.11826741 -0.5228409 -1.588177

output_mask f4 [64]
00000000: 0000 803f 0000 803f 0000 803f 0000 803f
00000010: 0000 803f 0000 803f 0000 803f 0000 803f
00000020: 0000 803f 0000 803f 0000 803f 0000 803f
00000030: 0000 803f 0000 803f 0000 803f 0000 803f
00000040: 0000 803f 0000 803f 0000 803f 0000 803f
00000050: 0000 0000 0000 0000 0000 0000 0000 0000
00000060: 0000 0000 0000 0000 0000 0000 0000 0000
00000070: 0000 0000 0000 0000 0000 0000 0000 0000
00000080: 0000 0000 0000 0000 0000 0000 0000 0000
00000090: 0000 0000 0000 0000 0000 0000 0000 0000
000000a0: 0000 0000 0000 0000 0000 0000 0000 0000
000000b0: 0000 0000 0000 0000 0000 0000 0000 0000
000000c0: 0000 0000 0000 0000 0000 0000 0000 0000
000000d0: 0000 0000 0000 0000 0000 0000 0000 0000
000000e0: 0000 0000 0000 0000 0000 0000 0000 0000
000000f0: 0000 0000 0000 0000 0000 0000 0000 0000
1.0 1.0 1.0 1.0 1.0 1.0 1.0 1.0
1.0 1.0 1.0 1.0 1.0 1.0 1.0 1.0
1.0 1.0 1.0 1.0 0.0 0.0 0.0 0.0
0.0 0.0 0.0 0.0 0.0 0.0 0.0 0.0
0.0 0.0 0.0 0.0 0.0 0.0 0.0 0.0
0.0 0.0 0.0 0.0 0.0 0.0 0.0 0.0
0.0 0.0 0.0 0.0 0.0 0.0 0.0 0.0
0.0 0.0 0.0 0.0 0.0 0.0 0.0 0.0

weight f4 [512]
00000000: af58 85bf 0292 483f f787 143f 85a0 4c3f
00000010: f984 4c3f 4d66 60bf 6e7e 023d 3f9d 043f
00000020: 078c 573f fdcd 86be ea58 9e3e 0e96 783e
00000030: 7485 d2be 43c1 cf3f 7016 17bf e43a 9dbf
00000040: 4718 d9bf 52e8 9d3f edf9 bcbe bf30 b53d
00000050: ade2 793f 9a03 b83f 4c33 823f 1049 c33f
00000060: 78d7 1cbf 0185 1ebc 5520 89be edd8 553f
00000070: 42e4 b3be 0309 be3c df2d 27bf fb89 6c3e
00000080: 1bb5 7c3e fb20 5f3f 94a1 003f a0c4 a03f
00000090: 111c 6ebe 3930 9fbe 40bb 28bf bd05 183c
000000a0: 1f72 8ebd f0b1 08bf ee57 92bf c94b 5b3f
000000b0: cec1 d4bf 92c1 e8bf 65e7 193e 433d cfbf
000000c0: f03b 5abf a3be a8bf 82d0 09c0 f3bf a23e
000000d0: 702b a7be 0177 5f3e 8b88 cd3d 8d58 e33e
000000e0: 17dd adbf 6c17 0a3e 1aa4 763f 59ce a63e
000000f0: 174a 21be 7399 7f3c fa43 ecbf 956a 633e
00000100: e63a 933e 32f5 3abf beb5 f9be 0f86 0c3f
00000110: 23a6 97bf caba aabf 8816 08bf 08a5 32be
00000120: a747 35bf ea38 0a3f 4331 c33f 7592 99be
00000130: 5726 043f 9912 cabf a22c 4abd cd35 4a3d
00000140: 605a adbf 317f 76bd 6e94 a0bf 270b e23e
00000150: 7404 e63e ccde 10bf 165d 7cbf beff 36be
00000160: 30e1 cc3d f1bd 503f 40cf 893f f563 9ebf
00000170: 3426 f9bd 3528 cdbf 6173 fcbe 5aa3 d73f
00000180: ea9e 3b3f 0d41 a4bf 8027 263f 35e9 833f
00000190: 7c32 7fbe 8856 1c3e a0fa 5a3e c60c b8bf
000001a0: 9488 4f3d 2f54 c2bf 31eb 36bc 6b0b 6c3d
000001b0: 5b81 9f3f 99ef 63be 365d 203f bfcc cbbf
000001c0: 05ad f63f 7848 2ac0 b9de 0dc0 2d76 cb3f
000001d0: 8876 0b3e 4cd3 ae3f 72b3 d8bd 5edc 1a3e
000001e0: 1324 86bf c034 0740 1167 37bf 8dde e0bf
000001f0: dae0 363f 5593 e23e 7b4b b8bf 5470 8c3f
00000200: 16fd 033e afc3 fdbf 473f 873d 48b5 653d
00000210: 1e93 22bc 98b8 963e d0b2 7b3f 060a 883e
00000220: 2568 0f3f 3a0e 363f f2b5 a83d 4938 b43f
00000230: acb3 393e 8782 763f 3075 883f 89ea 46c0
00000240: 96ca ef3e 9bd2 d2bd b73b 57bf e2d2 17bf
00000250: 34b9 9e3f 9209 0b3f 3653 0b3e 705e 78bc
00000260: e35b 5e3d 4fa6 723f 7d75 83bd 00ae 86be
00000270: 5f90 fc3e 43c5 2e3f a2c1 09bf 8201 6a3f
00000280: 7d61 4fbf 4e7d a53e a305 ccbe 5769 bc3d
00000290: 8574 71bf 7017 b03d 09e2 84bf 2667 85bf
000002a0: e234 1a3f 9c4b f23e 23cf 6c3f 157f ccbe
000002b0: 9cb5 903f a05c 39be 2dfa 193f cfc2 f33d
000002c0: 7b8d 1ebe 9189 a43f 68e2 17bf aa54 e0be
000002d0: 88b4 1ebf e174 b33f 1e2e aa3f bf18 b73f
000002e0: 35d5 89bf 1da8 573f 717f 863f 0419 54bf
000002f0: b75e 513d e59c 6d3f ea06 7fbe 0c54 483f
00000300: 253a dd3f 4454 1940 dd1a 9dbf 673b 1fbf
00000310: 6a05 d6bd f774 9cbf 53ad acbf ba17 a8bf
00000320: c79c 88bf d8d3 97bf ab58 bbbf bee5 a83f
00000330: 3e5e b7be 1fa2 15be 0002 f4be 27eb 50bc
00000340: 13fe f5bf 9fb7 38bf 89f3 393e 2cdd 49be
00000350: 8cd4 1c3e 5fa2 fcbe 6371 ae3f 8ee4 cbbe
00000360: 3589 8bbf 37c0 103f 2996 6abf c584 ac3e
00000370: 5215 7dbd 6191 743e b08d f93e a789 80bf
00000380: b927 03be 1830 32bf cd2d 04bd fa37 1ebd
00000390: f9d9 c83f 0a0d d73f 5c8a 3ebe f0d7 e7bd
000003a0: 3afc 393e 38c2 2f3f 4b21 91bf b88f 453f
000003b0: 72e0 67be 0904 043f e8dd 9c3f 6eda 3bbf
000003c0: 2a20 4e3f d7bf 8b3d 2867 aabd e753 653e
000003d0: 1f9b e83e 4974 133f 7775 cfbe 8dd5 91bf
000003e0: 6ea0 c1bf 1ff9 b83f 5a3c 7cbe 357b 1abf
000003f0: f496 1f3e 0bef 8bbe 6cb7 543f 4e41 133f
-1.0417689 0.7834779 0.58019966 0.79932433 0.798904 -0.876561 0.031858854 0.5180244
0.8419804 -0.26329032 0.3092721 0.24275991 -0.41117442 1.6230854 -0.5901861 -1.2283597
-1.6960534 1.2336524 -0.36909428 0.08847188 0.97611505 1.4376099 1.0171905 1.5256672
-0.6126628 -0.009675265 -0.2678248 0.8353413 -0.35135084 0.023197656 -0.6530437 0.2309951
0.24678461 0.871597 0.5024655 1.2560005 -0.23252894 -0.31091478 -0.6591072 0.009278712
-0.069553606 -0.5339651 -1.1433084 0.85662514 -1.6621644 -1.8184073 0.15029676 -1.619057
-0.8524771 -1.3183178 -2.1533513 0.3178707 -0.32650328 0.2182274 0.10035809 0.44403496
-1.3583096 0.13485497 0.9634415 0.32579306 -0.1575092 0.01560055 -1.8458245 0.22208627
0.28755873 -0.7303039 -0.4877147 0.5489206 -1.1847576 -1.3338253 -0.5315938 -0.17445767
-0.7081246 0.53993094 1.5249408 -0.2999455 0.51621 -1.5786926 -0.04935897 0.049367715
-1.3543205 -0.060179893 -1.2545297 0.44149134 0.44925272 -0.5658996 -0.9857954 -0.17870995
0.100038886 0.8153983 1.0766373 -1.2374254 -0.1216549 -1.6027895 -0.49306777 1.6846726
0.7328936 -1.2832352 0.6490402 1.0305544 -0.24921602 0.15267384 0.21384668 -1.4378898
0.05066736 -1.5181941 -0.011164472 0.057628077 1.2461351 -0.22259368 0.6264223 -1.5921859
1.9271551 -2.6606731 -2.216719 1.5895439 0.13619435 1.3658233 -0.105811015 0.15123126
-1.0479759 2.1125946 -0.7164164 -1.7567917 0.71436846 0.4425303 -1.4398035 1.097178
0.12889513 -1.9825343 0.06603866 0.056081086 -0.009922771 0.2943771 0.9831972 0.26570147
0.56018287 0.7111546 0.08237828 1.4079677 0.18134946 0.9629292 1.0660763 -3.108065
0.46834248 -0.10294076 -0.8407549 -0.59306157 1.240027 0.5431148 0.13605961 -0.015159234
0.05428685 0.94785017 -0.064188935 -0.26304626 0.49328896 0.6826975 -0.53811085 0.9140855
-0.8100813 0.32322162 -0.3984805 0.091997795 -0.9431842 0.0859822 -1.038148 -1.0422103
0.6023694 0.4732331 0.92503566 -0.39940706 1.1305423 -0.1810174 0.6014736 0.11902391
-0.15483658 1.2854482 -0.59329844 -0.43814594 -0.6199422 1.4020044 1.3295324 1.4304427
-1.0768191 0.84240896 1.0507642 -0.8285067 0.051115718 0.9281753 -0.24904981 0.78253245
1.7283369 2.3957682 -1.2273823 -0.62200016 -0.104502514 -1.2223195 -1.3490394 -1.3132241
-1.0672845 -1.1861525 -1.4636434 1.3195112 -0.3581409 -0.14612626 -0.47657776 -0.012751377
-1.9218162 -0.72155184 0.18159308 -0.19713277 0.15315455 -0.4934263 1.3628353 -0.3982281
-1.0901247 0.56543297 -0.91635376 0.33695045 -0.06178791 0.23883583 0.4874091 -1.0042008
-0.12808122 -0.69604635 -0.03227024 -0.038627602 1.569152 1.6800854 -0.18607467 -0.11320484
0.18162623 0.6865573 -1.1338285 0.7717242 -0.22644213 0.5156866 1.225522 -0.7338017
0.8051783 0.068237 -0.08320457 0.22395287 0.45430848 0.5759931 -0.40519306 -1.1393296
-1.5127084 1.4451026 -0.24632397 -0.6034425 0.15584928 -0.27330813 0.8309238 0.5752152

output_mask f4 [8]
00000000: 0000 803f 0000 803f 0000 803f 0000 803f
00000010: 0000 803f 0000 803f 0000 803f 0000 803f
1.0 1.0 1.0 1.0 1.0 1.0 1.0 1.0

output_mask f4 [72]
00000000: 0000 803f 0000 803f 0000 803f 0000 803f
00000010: 0000 803f 0000 803f 0000 803f 0000 803f
00000020: 0000 803f 0000 803f 0000 803f 0000 803f
00000030: 0000 803f 0000 803f 0000 803f 0000 803f
00000040: 0000 803f 0000 803f 0000 803f 0000 803f
00000050: 0000 803f 0000 803f 0000 803f 0000 803f
00000060: 0000 803f 0000 803f 0000 803f 0000 803f
00000070: 0000 803f 0000 803f 0000 803f 0000 803f
00000080: 0000 803f 0000 803f 0000 803f 0000 803f
00000090: 0000 803f 0000 803f 0000 803f 0000 803f
000000a0: 0000 803f 0000 803f 0000 803f 0000 803f
000000b0: 0000 803f 0000 803f 0000 803f 0000 803f
000000c0: 0000 803f 0000 803f 0000 803f 0000 803f
000000d0: 0000 803f 0000 803f 0000 803f 0000 803f
000000e0: 0000 803f 0000 803f 0000 803f 0000 803f
000000f0: 0000 803f 0000 803f 0000 803f 0000 803f
00000100: 0000 803f 0000 803f 0000 803f 0000 803f
00000110: 0000 803f 0000 803f 0000 803f 0000 803f
1.0 1.0 1.0 1.0 1.0 1.0 1.0 1.0
1.0 1.0 1.0 1.0 1.0 1.0 1.0 1.0
1.0 1.0 1.0 1.0 1.0 1.0 1.0 1.0
1.0 1.0 1.0 1.0 1.0 1.0 1.0 1.0
1.0 1.0 1.0 1.0 1.0 1.0 1.0 1.0
1.0 1.0 1.0 1.0 1.0 1.0 1.0 1.0
1.0 1.0 1.0 1.0 1.0 1.0 1.0 1.0
1.0 1.0 1.0 1.0 1.0 1.0 1.0 1.0
1.0 1.0 1.0 1.0 1.0 1.0 1.0 1.0

weight f4 [2048]
00000000: a2f7 5fbf f6e9 3bbe 5137 f1bd a8e9 4ebe
00000010: fd20 063f be49 993f a5a8 c8bd 7ff6 8a3f
00000020: 53c3 323f 8204 4f3f 1acf ec3f 75cb edbf
00000030: 6959 3abf 2253 8d3f 5e10 f23f 2b96 0b3f
00000040: 03b0 373e 6eea 633f 1149 ba3f 6eba 4bbe
00000050: e1c2 c33e e683 393e f4c7 26bf e3ac 2c3f
00000060: 08d2 0abf ce9b 8dbf bc43 143e 5252 043e
00000070: 0e71 2bbf 55de d5bf 5bab b5be 3b51 c33e
00000080: a6be 10c0 9f11 063f ffe1 ecbd 966c 973f
00000090: 9bad 99be 2aad 0ebf fc2c 373c 48ba 003f
000000a0: a182 6f3f d2cb f63e fcdb 34bf 916c 423f
000000b0: 337d d6bf 9e35 6a3f 8439 ffbe e477 5a3f
000000c0: efe0 42be 01dd 89bf 1141 81bf 0b89 9cbf
000000d0: a817 18c0 2900 9cbe 2df8 6c3d 7097 113f
000000e0: b62f 14be 84b9 a13e 6892 6a3f 8fd9 54bf
000000f0: 1af7 c0bb 7a0e d2bc f57b 633e 0016 f33c
00000100: 353b fabc 7360 0b3e 4339 a23e d16b 0bbf
00000110: 5451 2f3f 873e d3ba dc0b 873f e007 bf3d
00000120: 94a5 debe 193b cc3d e148 3cbf e542 b23e
00000130: cfb3 71bf 134d 9dbd 183f cf3e 6096 78bf
00000140: 5062 8a3e ada4 5e3d 39a2 fc3f b2e7 0bbe
00000150: 0f34 eabe 2368 393f 7098 76be f0d5 03c0
00000160: 6b85 65be f691 7dbf 4f35 343f cdb5 c83e
00000170: 28d2 e33f f9aa dd3f 2f06 583d cb76 5f3e
00000180: e715 c83d 27b3 2dbc 372c 1dbf 3b88 583e
00000190: 2eb4 09bf 4bf1 f23d 9076 8fbf 6f5d d2be
000001a0: a746 82be 4b46 423f a5d4 07bf 8a6a 1c40
000001b0: ea2f 0dbc 5929 31bf c297 2ec0 9b3a 1440
000001c0: a209 f0be ff7d 113f f306 69bf 2435 983e
000001d0: e406 36bf 7e58 29bf 79b1 30bf 96af a43f
000001e0: 63f2 b63e c157 94bf 0d74 b73e df8b 26bf
000001f0: f1c0 ad3f 12ba f63e efee 933e 454e b73e
00000200: 7629 89be b33b 6ebe 11fd 0ebf 5eb6 0240
00000210: a2e5 4a3e 2f12 02bf 9aaa 2f3c a1e3 0a3f
00000220: b659 8f3d d605 0c40 9de1 233e 7a74 453f
00000230: 0213 683d c8fb cebe d86e 3f3f 2ff7 cebe
00000240: 57af 82bf 8c8c 813e 9e2b 8dbe 3641 eabf
00000250: 7b6a 0c3d c2f3 1cbd 1267 df3f e05d 1b3e
00000260: 342e 403f bcfc ddbf 90b2 5c3e dc83 353f
00000270: 9782 11bd 3c10 cdbf 0913 c8bf c917 f43d
00000280: c459 0e3d 8e2c aebc b44b 4b3e 707a 19c0
00000290: dc15 a7bf 79a8 853f 93fd 213f d245 07bf
000002a0: 374d 673e e3a7 c13d 2259 773f 32f0 0640
000002b0: c22e 0b3c 846a 88bf 483d e9bf 1330 a0bf
000002c0: 7727 9dbe 18d7 693f 6bb4 6ebe 2d54 2cbd
000002d0: 8ec1 463f 9d08 64bf b11f 86be 4a41 433f
000002e0: c633 0b3f be57 c2bf 0739 50bf 0678 bf3e
000002f0: cc0f 50bf d42b a8bf bdc3 eebf 61ab d73f
00000300: 3c1e 3b3e a5d5 a1bf 7542 d53f fbc6 fdbe
00000310: 5e71 aebf 8b69 2fc0 f3d5 f2be c3d0 e5bf
00000320: d9d2 7d3f 22d3 84bf 5500 903f 8c97 813f
00000330: 0b48 88bd 114c 083f d8cc 963f 8c01 14bf
00000340: 6995 c8bb 49d3 1e3f 9f82 25bf f7e3 1e3f
00000350: e5c0 123f b8d5 c1be 1696 b9bf f1fc 313e
00000360: a249 a03f f7a0 21c0 34fa 5abe 020c afbf
00000370: 867a 06bf fc54 a33e f5cc df3f a74e 61bf
00000380: a73f 5cbf 8e99 533f afde dc3e 162a e3bf
00000390: 7ade 113f a96d 9bbf 9b43 9a3f a120 86bf
000003a0: bfff c73e 8db6 9bbf 038a 6fbf ba01 383f
000003b0: 4c80 8a3f 93ae 98bd bdf0 953f 822b 48c0
000003c0: 4882 413f a46d de3d b406 e9be fd6c 40bf
000003d0: 4089 433e b504 22bf d5f6 e3be 5fba 80bf
000003e0: a6b6 abbf add4 ba3f 360b 293f ec32 1abd
000003f0: a204 773f 931c 6e3f bf8f 223f 64c1 123f
-0.8748723 -0.18350968 -0.11778129 -0.2020632 0.52394086 1.1975629 -0.097977914 1.0856475
0.6982929 0.80866253 1.8500702 -1.8577715 -0.7279268 1.1040995 1.8911245 0.54526013
0.17938237 0.89029586 1.4553548 -0.19895336 0.38234618 0.18116722 -0.65148854 0.67451304
-0.5422673 -1.1063173 0.14478964 0.12922028 -0.6696938 -1.6708475 -0.35482296 0.3814791
-2.2616363 0.5237064 -0.11566543 1.1830013 -0.30015263 -0.5573298 0.011180159 0.5028424
0.935587 0.48202378 -0.7064817 0.7594691 -1.6756958 0.91488063 -0.49848568 0.8533919
-0.19031118 -1.077057 -1.0097982 -1.2229322 -2.3764439 -0.30468872 0.057853866 0.568717
-0.14471325 0.3158685 0.9162965 -0.8314447 -0.005888832 -0.025641669 0.22215255 0.029673576
-0.03054581 0.13611011 0.31684312 -0.5446139 0.6848347 -0.0016116657 1.0550494 0.09327674
-0.434857 0.099722095 -0.73548704 0.3481666 -0.9441499 -0.07680716 0.40477824 -0.97104454
0.2702813 0.054356266 1.9737006 -0.13662603 -0.45742843 0.72424525 -0.24081588 -2.0599327
-0.22414176 -0.99050844 0.7039384 0.39201203 1.779851 1.7317802 0.052740272 0.2182266
0.097698025 -0.010601795 -0.6139559 0.21145718 -0.5379056 0.11862429 -1.1208057 -0.4108691
-0.25444528 0.7588851 -0.53058845 2.4440026 -0.008617381 -0.69203717 -2.7280126 2.316077
-0.4688235 0.5683288 -0.9102623 0.29728043 -0.71104264 -0.66150653 -0.690208 1.2866085
0.357318 -1.158928 0.35830727 -0.65057176 1.3574506 0.48188835 0.2889323 0.35801902
-0.26789445 -0.23264961 -0.558549 2.0423808 0.1981416 -0.50808996 0.010721827 0.54253584
0.06999533 2.1878562 0.16004033 0.77130854 0.056658752 -0.4042647 0.7477851 -0.4042296
-1.020976 0.2530254 -0.2757234 -1.8301151 0.034281235 -0.038318403 1.745333 0.15172529
0.750705 -1.7342753 0.21552491 0.70904326 -0.03552493 -1.6020579 -1.5630809 0.11918599
0.034753576 -0.02126148 0.19853097 -2.398098 -1.3053546 1.0442039 0.6327755 -0.5284091
0.22588049 0.0945585 0.9662038 2.1084104 0.008495035 -1.0657506 -1.8221827 -1.2514671
-0.30694172 0.9134383 -0.23311011 -0.042072464 0.7763909 -0.8907564 -0.26196054 0.762715
0.54375875 -1.5183027 -0.81337017 0.37396258 -0.81274104 -1.3138375 -1.8653485 1.6849176
0.18273252 -1.2643324 1.6660906 -0.49565873 -1.3628347 -2.7408168 -0.47428855 -1.7954334
0.99149853 -1.0376933 1.1250101 1.0124373 -0.06654366 0.5324107 1.1781263 -0.5781486
-0.0061213267 0.62041146 -0.64652437 0.62066597 0.57325584 -0.37858367 -1.4498928 0.17381646
1.2522471 -2.5254495 -0.21384507 -1.367554 -0.52530706 0.31900775 1.7484423 -0.8801064
-0.86034626 0.8265618 0.43138644 -1.7747219 0.569801 -1.2142841 1.2051882 -1.0478708
0.39062306 -1.2165085 -0.93569964 0.71877635 1.0820403 -0.074551724 1.1714092 -3.1276555
0.7558942 0.10860756 -0.45512927 -0.751663 0.19095325 -0.6328843 -0.44524255 -1.0056876
-1.3415115 1.4596153 0.6603273 -0.03764622 0.96491444 0.9301235 0.6350059 0.5732634

output_mask f4 [64]
00000000: 0000 803f 0000 803f 0000 803f 0000 803f
00000010: 0000 803f 0000 803f 0000 803f 0000 803f
00000020: 0000 803f 0000 803f 0000 803f 0000 803f
00000030: 0000 803f 0000 803f 0000 803f 0000 803f
00000040: 0000 803f 0000 803f 0000 803f 0000 803f
00000050: 0000 803f 0000 803f 0000 803f 0000 803f
00000060: 0000 803f 0000 803f 0000 803f 0000 803f
00000070: 0000 803f 0000 803f 0000 803f 0000 803f
00000080: 0000 803f 0000 803f 0000 803f 0000 803f
00000090: 0000 803f 0000 803f 0000 803f 0000 803f
000000a0: 0000 803f 0000 803f 0000 803f 0000 803f
000000b0: 0000 803f 0000 803f 0000 803f 0000 803f
000000c0: 0000 803f 0000 803f 0000 803f 0000 803f
000000d0: 0000 803f 0000 803f 0000 803f 0000 803f
000000e0: 0000 803f 0000 803f 0000 803f 0000 803f
000000f0: 0000 803f 0000 803f 0000 803f 0000 803f
1.0 1.0 1.0 1.0 1.0 1.0 1.0 1.0
1.0 1.0 1.0 1.0 1.0 1.0 1.0 1.0
1.0 1.0 1.0 1.0 1.0 1.0 1.0 1.0
1.0 1.0 1.0 1.0 1.0 1.0 1.0 1.0
1.0 1.0 1.0 1.0 1.0 1.0 1.0 1.0
1.0 1.0 1.0 1.0 1.0 1.0 1.0 1.0
1.0 1.0 1.0 1.0 1.0 1.0 1.0 1.0
1.0 1.0 1.0 1.0 1.0 1.0 1.0 1.0

weight f4 [16, 64]
00000000: 79ba a2bf a3fe d1ba 7f2e e63e c711 0bbe
00000010: 9004 adbf d170 013e c177 1840 347d abbc
00000020: 722a e63f ca15 d5bf 7a48 73be 58c1 3cbf
00000030: 81e5 81be 4839 bcbf a405 31c0 e452 9bbe
00000040: a606 363f b4f5 033f 9ca0 703f 4915 8cbe
00000050: 16c6 233f 536a d1be 8582 a93d 2d4e c4be
00000060: 87dd 993f 71bd fabe d13e 09c0 5925 0a3f
00000070: 3ad9 b13e 2fa2 68be 0100 87bf f5cf d5bf
00000080: e2ba e73e 72f3 0040 592a 3cbf 1030 98bf
00000090: 10b7 d8be 1edd 133f fb43 333e 8ec7 43be
000000a0: 32c4 0abf d44b 843f c767 55bf add6 14c0
000000b0: 1b97 2e3f 9017 1140 70b1 03c0 900f 38be
000000c0: c045 9a3e 36b5 803f 0570 a6bf c95d b23f
000000d0: ab2c 4c3e a9fb 983e 445b 83be be9d 05c0
000000e0: 9bdf a6be 06c1 dcbf 566c b83f 5087 543e
000000f0: 44b2 19bf c3c2 5e3f 4443 bb3f e495 23c0
00000100: 4a3e 7c3e 5abc d43f 4d78 83bf 5f9b 58bf
00000110: 5bcb 173f 1575 f73f bcad d9bf 8526 193f
00000120: e574 453e 3042 833e d561 9cbe 0840 153f
00000130: 3654 ef3e 628b e33f b63d a33e 8afc bfbf
00000140: b6f3 bdbe c35a 6ebf 0187 ddbf c548 c9be
00000150: 4fa3 70be b740 4cbd 4bc8 f1bc 46a5 8fbf
00000160: ddb2 91bf 850d 583f fa55 1ebf f469 15bf
00000170: 1679 7cbf 5b0f 0c3f 13d8 203f 3681 aebe
00000180: f12b c1be 4d80 babf 67ea 243e 1f35 38bf
00000190: d1ce c4bf bdd4 383f 21bb 35be 8109 8abf
000001a0: fc2d a9be 90db efbe 7ad9 1c3f 9855 773f
000001b0: 4299 473d 48bf 1f3f 868f dfbd 1d96 1a3f
000001c0: e245 f7bf baed e7bf 77e9 13be a90b 6dbf
000001d0: 4bec 35be e5cd 3fbf bda8 933f 4be8 083f
000001e0: 7fe1 f93f 57a6 643f 6516 663f 619a a9bf
000001f0: db23 403f d400 28bf 8283 a1be 5aa0 2a40
00000200: f6ec 43be 600e d9be bd3e 853e 74f9 f4be
00000210: ac8f 7fbf 9888 83be dbc5 5f3f e5c0 c3be
00000220: 3b70 343f d4d6 b2bd 8ca1 753e dc83 38c0
00000230: 282f f9bf d2d6 0640 6322 0dc0 38d7 843f
00000240: a2a9 573e 4103 a8bf 3415 afbf bc27 0f3f
00000250: 5d39 9d3f 07ff 6c3f 5142 993f 3ca0 143f
00000260: 1eb3 c4bf e32f e5bf a093 113f e34b 7cbf
00000270: aa03 05bf 172f 233f 3dc7 863d 99c1 29bf
00000280: 50c1 c4be 8603 bbbe 9fc2 9a3e 0497 fa3f
00000290: 3a1f 963d 1ac1 3dbe fb30 41bf 5500 13bf
000002a0: bfc4 5cbe d6e6 6bbf 1fee 5d3e 4fa8 8a3f
000002b0: 948f 133f 7654 f0be d3a3 04bf ab73 583f
000002c0: ac9e 0a40 82d4 5c3f 1918 b3bf 618e 41be
000002d0: 7f20 bb3e 0e7e 6a3f daa6 b73e 6927 9a3e
000002e0: fdf9 bfbf ec3f 863e 06c3 4cbf 32b9 babe
000002f0: 2923 aa3e 88e1 093f a5d7 9fbf 9e38 1d3f
00000300: 139f d53e 9c05 19bf 180a 0dc0 1a2c 4c3f
00000310: e05a 683e d483 75bf 6fc3 bebe 7013 96be
00000320: a72a 073d 9c84 f2be 2ebd 50bf 0449 173f
00000330: da99 9dbf 0915 253c 1512 6f3f 4bf2 d3bf
00000340: c809 9abf 4fc9 943f 0c63 f63e a833 723e
00000350: eb71 8cbe 6bd4 1b3f 557b 03bf 8ed3 f73d
00000360: e43e e3be 98b3 4a3e 0f27 fcbd aac4 bbbf
00000370: d073 eabe 8a98 c53f ba52 b73f 045e b03f
00000380: 2b19 793f c820 bd3e e90e 373f 3f3a 40be
00000390: c9b2 c0bf bf9f b23e f22a a13f 6710 bb3d
000003a0: b4af 413f 125e 883f cb4d 42bf 7e77 d8be
000003b0: d2a1 80bf 2a20 83bf faf7 883f d9b8 18bf
000003c0: 9a70 663e 2866 9e3f 18f5 4b3f c059 9cbf
000003d0: 4168 89bf 3589 0dbf f4f7 8bbf f4ec c53e
000003e0: d84f 433c 81e9 17bf 362c 9bbe 670b 8ebf
000003f0: e320 cebf 09bc adbe 0843 c33f 12aa b9bc
-1.2713157 -0.0016021322 0.4495735 -0.13581 -1.3517017 0.12640692 2.3823092 -0.020933725
1.7981703 -1.6647274 -0.23758116 -0.7373252 -0.2537041 -1.4704981 -2.7659693 -0.30336678
0.71103895 0.5154679 0.9399507 -0.2735999 0.6397413 -0.4090143 0.08276848 -0.38340893
1.202073 -0.48972657 -2.144459 0.5396324 0.34736043 -0.22718118 -1.0546876 -1.6704088
0.45259768 2.0148587 -0.7350212 -1.1889668 -0.42327166 0.57759273 0.17506401 -0.19119093
-0.5420562 1.0335641 -0.83361477 -2.3256028 0.6819932 2.2670631 -2.057705 -0.17974687
0.3013134 1.0055301 -1.3002936 1.3934871 0.19938914 0.298795 -0.25655568 -2.0877528
-0.32592472 -1.7246406 1.4408062 0.20754743 -0.60037637 0.8701593 1.4629903 -2.5560236
0.24633136 1.661998 -1.0271088 -0.8461208 0.5929467 1.9332606 -1.7006145 0.598244
0.19282873 0.25636435 -0.3054339 0.5830083 0.46743935 1.7776911 0.3188302 -1.4998944
-0.371 -0.9310724 -1.7306825 -0.3931333 -0.23499797 -0.049866404 -0.029514452 -1.1222312
-1.138271 0.8439563 -0.6184994 -0.58364797 -0.9862226 0.5471093 0.62829703 -0.34082955
-0.37728837 -1.4570404 0.16105042 -0.71956056 -1.5375615 0.7219961 -0.17747165 -1.078415
-0.33042896 -0.468472 0.6126934 0.9661498 0.048730142 0.6240125 -0.10916047 0.60385305
-1.9318202 -1.8119423 -0.14444529 -0.92595917 -0.1776592 -0.74923545 1.153587 0.5347945
1.9521941 0.89316314 0.8987792 -1.3250238 0.7505471 -0.65626264 -0.31545645 2.666037
-0.19133362 -0.4239378 0.26024428 -0.47846568 -0.998286 -0.2569015 0.8741128 -0.38233104
0.7048375 -0.087323815 0.23987406 -2.883048 -1.9467516 2.1068616 -2.2052238 1.037818
0.21060804 -1.3125993 -1.3678346 0.55920005 1.2283131 0.9257664 1.1973363 0.58057
-1.5367162 -1.7905239 0.5686588 -0.98553294 -0.51958716 0.6374373 0.065809704 -0.6631103
-0.38428736 -0.36526126 0.3022661 1.9577336 0.07330175 -0.18530694 -0.75465363 -0.5742238
-0.21559428 -0.921491 0.21672867 1.0832614 0.5764096 -0.4693944 -0.51812476 0.84551495
2.1659346 0.8626176 -1.3991729 -0.1890197 0.3654823 0.91598594 0.35869485 0.30108193
-1.4998165 0.26220644 -0.7998508 -0.36469418 0.3322995 0.5385976 -1.2487684 0.61414516
0.41722926 -0.59774184 -2.203741 0.79754794 0.22690916 -0.9590428 -0.3725848 -0.29311705
0.03299966 -0.47366798 -0.81538665 0.5909579 -1.2312577 0.010075816 0.93386966 -1.6558317
-1.2034235 1.1623935 0.48122442 0.23652518 -0.27430663 0.60871 -0.51360065 0.12100898
-0.4438392 0.19795072 -0.12312137 -1.4669392 -0.45791483 1.5437176 1.4322121 1.3778691
0.9730403 0.36939073 0.71507126 -0.18772219 -1.5054561 0.34887502 1.2591231 0.09133988
0.75658727 1.0653708 -0.7589995 -0.42278665 -1.0049384 -1.0244191 1.0700676 -0.59657055
0.22503892 1.2374926 0.7967086 -1.221489 -1.0734941 -0.55287486 -1.0935044 0.38657343
0.011920892 -0.59340674 -0.30307168 -1.109723 -1.6103786 -0.33932522 1.5254831 -0.022664104

weight f4 [64, 24]
00000000: 59c9 423e c6bf 45be 891b debd f06e ad3f
00000010: 7471 9b3f 8654 2fbf fd87 683d 7023 a8be
00000020: dc67 353e 9467 febe 1564 20be 683d d43f
00000030: 6cbb b53f 8b16 87bf 5acb 67be c291 f63e
00000040: 9950 7a3f 4f3c 01bd d971 f83e f378 c23d
00000050: 8ff2 e03e edd0 b83f be40 453f 13dd 84be
00000060: 9471 c73f 70c9 6cbf c6de debf 5d30 d3be
00000070: 433d 08bf adb2 f63f da0b b4bf e898 fcbe
00000080: 7b54 6a3f 3bac 33bf 814e 4c3f 8357 b63e
00000090: c444 1cbf d8c6 4abe b144 993f 0818 3a3d
000000a0: 3663 933f dec0 75be f89f e2bd 0cf3 dbbf
000000b0: 6e11 153e 8a06 203e bd5f a73e ead6 263e
000000c0: 6033 bb3b 57b4 5f3f 2e2a 23c0 f0e9 0b40
000000d0: 3a0b c73f 0048 c1be 2f9e e7bf fc4a 7b3f
000000e0: b687 f23c 24e1 c0be f0ed fbbf a620 0cbf
000000f0: 8f4a f6be 87bb 743f 2cfe b3be 6f93 d6bf
00000100: d34a 06bf 9773 65bf f6e0 b73e ee62 bdbe
00000110: 503e a93e eda7 9ebf 368f fabf 95fd 90be
00000120: b2cf 2a3f df09 bc3f 61d6 6d3f 6c98 03bf
00000130: b3b9 ecbf 393b c13c f231 ab3e cdf3 b6bf
00000140: c938 a7bf fbb3 343e 595a f2bf e72e 813e
00000150: 8f5b 16bf 0de1 ac3f c304 0f40 ecc3 d13f
00000160: 38a1 5a3f d88d a43f b59c 3ebf 714f 0d3f
00000170: 5a7e 80bf f26f 423e ff94 bcbf 053a d03e
00000180: 13f2 2840 2ab4 58bf 7a72 bf3e da79 773f
00000190: 6447 0340 f66f 833f 9f31 67be 3625 413e
000001a0: 71a2 e13f 7926 cb3e dfc7 c5bc bcab df3e
000001b0: 1579 3abf 0665 153e ecee 923f 12ba b1bf
000001c0: 4a95 3a3f 5b4b e6bf 729e 4ebe 405a 143f
000001d0: 1533 4e3f 95a1 9e3f 6c56 933d a392 0b3f
000001e0: 117a b9bd 288f 6b3f fcc6 2ebe 0035 413f
000001f0: cc3a 0f3d 53db 6d3f 103a 3fbd 1b77 543f
00000200: c62f 943e c362 52be 53a9 ae3f 5dea 943f
00000210: cd7a febe a8da 3ebf f46c ffbc 3967 cabe
00000220: ee39 0040 e11d 9e3f 4786 913e 7f29 e9bf
00000230: e4cc f83c d992 cf3f cc35 83bf cda3 b33f
00000240: 745e f4bf 6efd 5f3f 4511 4c3e 388f 95bf
00000250: 6fe9 80bf a637 f53e 23e0 7c3f da03 15bf
00000260: 20ce 18c0 8796 98be 793a d63f 3486 923d
00000270: def4 a9bf f8a5 b03f cf71 ea3e 927a 5bbf
00000280: 56b3 d7bf 3ccf 3ebf 63a7 ebbe 9328 23bf
00000290: 1f83 81bf 5679 32bf 3e9c 00c0 ce52 fc3d
000002a0: 1079 c93f 06a3 24be b26e bb3c 9bfb 4cbf
000002b0: d9dd 9f3f cc51 343f afd1 753e 61d3 2d3f
000002c0: 2f53 aabf 8793 b73f 84fd b03f b0d8 1abf
000002d0: 4b15 f4be b9a6 67bf 3359 f63e 2483 e7be
000002e0: d5d0 033f 1050 a43e 841f abbf 176b 59bf
000002f0: 1747 e63e 21b8 c33f c028 d4be a69a dfbf
00000300: 3f9e d4be 63ca a83f b686 abbf 5ffa c33e
00000310: 5df8 d73e 9563 20bc c97f cebd 4322 40bf
00000320: 42ff 4bbf b02a 913f 4a86 21bc 53ce 1abf
00000330: 46f2 203f c3ef 773f f554 d0bd f4bc d63e
00000340: 022d 6ebe 629e d73f c5b2 15bf 4ca7 03be
00000350: cc40 843e fe1f 803f 188c 0dc0 a724 553f
00000360: dd9f 173d 31ee 283f f34f 5fbd 7bc6 3b3f
00000370: 3d3c b6be a27c 6bbf 0462 06c0 15de 7e3f
00000380: 7380 613f 49ae 39bf 3abe 783f 376c 09be
00000390: 85eb f73e 1be9 d13b 21ca 31bf c1fb 783f
000003a0: 832b 833f ccca bd3e 20de 0abe 2aa4 a83f
000003b0: 0bd4 ee3f 56c1 233f 15dc 2f3e f46a 8ebf
000003c0: ad6a 81be 1ad6 693f d7c1 81bf 7e50 a03f
000003d0: 9180 693f 33a2 97bd ec9f 8dbf 550f dd3e
000003e0: b434 023f cc93 a5bf 734a 04bf 672b ce3e
000003f0: 8898 b53f 1af8 3c3f 406e 91bf a116 123f
0.1902212 -0.19311437 -0.10845096 1.354948 1.2143998 -0.6848835 0.056770314 -0.32839537
0.177154 -0.496884 -0.15663178 1.658124 1.4197822 -1.0553755 -0.22636166 0.4815808
0.9777923 -0.031551655 0.4852436 0.094957255 0.43935058 1.4438759 0.77051914 -0.25949916
1.5581536 -0.9249487 -1.7411735 -0.41247836 -0.5321848 1.9273278 -1.4066117 -0.49335408
0.91535157 -0.7018468 0.7980729 0.3561364 -0.6104243 -0.19802415 1.1974088 0.045433074
1.1514652 -0.23999354 -0.11065668 -1.7183547 0.1455743 0.15627494 0.3269023 0.1629292
0.0057129115 0.8738455 -2.5494494 2.1861534 1.5550301 -0.37750244 -1.8095149 0.9816129
0.029605728 -0.3767177 -1.9681988 -0.5473732 -0.4810376 0.95598644 -0.35154855 -1.6763743
-0.5245792 -0.896295 0.3591382 -0.3698954 0.33055353 -1.2394997 -1.9574955 -0.28318468
0.6672317 1.4690512 0.9290524 -0.5140445 -1.8494171 0.02358781 0.33436543 -1.4293152
-1.3064204 0.17646782 -1.8933822 0.25231096 -0.5873346 1.350618 2.2346656 1.6387916
0.8540225 1.2855787 -0.74457866 0.5519934 -1.003856 0.18988016 -1.473297 0.40669265
2.639775 -0.8464991 0.37392026 0.96670306 2.0512323 1.0268543 -0.22577523 0.18861851
1.7627698 0.3967779 -0.024143158 0.4368571 -0.72841007 0.14589319 1.1479163 -1.3884909
0.7288405 -1.7991747 -0.2017763 0.5795021 0.80546695 1.2393061 0.07194218 0.54520625
-0.090564854 0.92015314 -0.17068094 0.75471497 0.034968182 0.9291279 -0.046686232 0.8299424
0.28942698 -0.20545487 1.3645424 1.1634022 -0.49703065 -0.7455239 -0.031179883 -0.39531878
2.0035357 1.2352868 0.28422758 -1.8215789 0.030371137 1.6216689 -1.0250793 1.4034363
-1.9091325 0.8749608 0.19928463 -1.1684332 -1.0071238 0.4789402 0.98779505 -0.58209
-2.3875809 -0.29802343 1.6736594 0.071545035 -1.3277853 1.380065 0.45789954 -0.857339
-1.6851604 -0.74534965 -0.46026143 -0.63733786 -1.011814 -0.69716394 -2.0095363 0.12320481
1.574007 -0.16077814 0.022879932 -0.8007142 1.2489578 0.7043731 0.24005769 0.67900664
-1.3306636 1.4341897 1.3827367 -0.6048689 -0.47672495 -0.90488774 0.4811493 -0.4521724
0.5149053 0.32092333 -1.3368993 -0.8492903 0.44976112 1.5290567 -0.4143734 -1.746907
-0.41526982 1.3186764 -1.3400486 0.38276955 0.42181674 -0.009789367 -0.10082967 -0.7505228
-0.7968637 1.1341152 -0.009858677 -0.60471076 0.6286968 0.9685022 -0.10172454 0.41941035
-0.23259357 1.684521 -0.58475906 -0.12856787 0.25830686 1.0009763 -2.2116756 0.8325905
0.037017692 0.6598845 -0.054519605 0.7334973 -0.35592833 -0.9198705 -2.0997324 0.9955762
0.8808662 -0.72531563 0.9716526 -0.13420187 0.48421875 0.006405962 -0.6944905 0.97259146
1.0247654 0.37068784 -0.13561296 1.3175099 1.865846 0.6396688 0.17173798 -1.112639
-0.252767 0.9134232 -1.013728 1.2524564 0.912118 -0.07403984 -1.1064429 0.4317576
0.5086167 -1.2935729 -0.516761 0.40267488 1.4187174 0.7381607 -1.1361771 0.5706578

weight f4 [64]
00000000: fa60 38be a633 263e a7be 203e 682f 1d3e
00000010: 2873 35be 80bb 0bbd e07a 5bbd 071a e8bb
00000020: b8f4 62bd f141 86bc 756a adbc cc5c 15bd
00000030: effc 8dbd 2cf6 80bd 11c6 18bd e94e 453d
00000040: 3f7b 5c3d 5d26 3fbc 9e07 eebb a760 853b
00000050: 339a 823d dac6 23bd 0b24 013d 6023 853d
00000060: 32b7 9cbe 586f 913e ee2f 8c3e 16ea 8e3e
00000070: 2b9a 97be 7cdb 4bbe 3436 76be 3ce9 e73d
00000080: db07 e53d 8bc6 fc3c c080 6d3d 9e7a 463d
00000090: ee43 0c3e 2a5f 523d 57ce 5ebd 2afa 4dbd
000000a0: 8aa0 61be de88 0f3d 0f21 a53b d0a6 cabc
000000b0: 9283 6abe ba0c dd3e c59f c83e 32e6 eabe
000000c0: dbd7 b7bd 5817 d83c 870e b83c 9832 073c
000000d0: 6b03 d8bd 5b9c 163e 91cc 163d 3553 29be
000000e0: 896d 213e ac61 83be c5ca 8dbe 4d53 a0be
000000f0: 49c1 1e3e 1080 e63e cb4b 273f 339b 90be
-0.18005744 0.1623064 0.15697728 0.15350115 -0.1771971 -0.03411436 -0.05358398 -0.007083181
-0.055409163 -0.016388865 -0.021168927 -0.03646545 -0.06933009 -0.062969536 -0.037298266 0.048170958
0.053828474 -0.011666861 -0.0072640916 0.0040703597 0.063770674 -0.03998456 0.031528514 0.06500888
-0.30608517 0.2840526 0.27380317 0.27912968 -0.29609808 -0.19907945 -0.24044114 0.11323783
0.11183139 0.030856391 0.057984114 0.04845678 0.13697788 0.051360287 -0.054396 -0.050287403
-0.22033897 0.035042636 0.0050393413 -0.024737746 -0.22901753 0.43173772 0.39184394 -0.4587875
-0.08976718 0.026378319 0.022467865 0.008251809 -0.10547527 0.14708082 0.036816183 -0.16535647
0.1576444 -0.25660455 -0.27693763 -0.31313553 0.1550342 0.4501958 0.65350026 -0.28243408

output_mask f4 [44]
00000000: 0000 803f 0000 803f 0000 803f 0000 803f
00000010: 0000 803f 0000 803f 0000 803f 0000 803f
00000020: 0000 803f 0000 803f 0000 803f 0000 803f
00000030: 0000 803f 0000 803f 0000 803f 0000 803f
00000040: 0000 803f 0000 803f 0000 803f 0000 803f
00000050: 0000 803f 0000 803f 0000 803f 0000 803f
00000060: 0000 803f 0000 803f 0000 803f 0000 803f
00000070: 0000 803f 0000 803f 0000 803f 0000 803f
00000080: 0000 803f 0000 803f 0000 803f 0000 803f
00000090: 0000 803f 0000 803f 0000 803f 0000 803f
000000a0: 0000 803f 0000 803f 0000 803f 0000 803f
1.0 1.0 1.0 1.0 1.0 1.0 1.0 1.0
1.0 1.0 1.0 1.0 1.0 1.0 1.0 1.0
1.0 1.0 1.0 1.0 1.0 1.0 1.0 1.0
1.0 1.0 1.0 1.0 1.0 1.0 1.0 1.0
1.0 1.0 1.0 1.0 1.0 1.0 1.0 1.0
1.0 1.0 1.0 1.0

weight f4 [1920]
00000000: 58b3 93be e6cb c5be b264 16c0 0254 a83e
00000010: 518f 69bf 9724 efbe c94e c7bd 85fc 503d
00000020: 8a75 443f a172 923f 8a12 f4be bbe6 47bf
00000030: 4236 b4bf a377 8abf d5cb 853f 9408 ad3e
00000040: 2ac5 9e3f 25c1 54bf cd5f 01c0 2c3f 8cbf
00000050: 9cc7 303f 534e d6be d414 13be d483 0a3f
00000060: 9e99 833f 2ae2 f1bd e8c2 c5be f9e8 8c3f
00000070: 9b51 d6be 3963 81bf 2542 1f3f ce70 ec3f
00000080: 3fa3 103f 52a8 a2be f307 d03e 7788 a23e
00000090: d6e2 efbe 0499 063f b635 ec3f 9c0e aa3f
000000a0: d417 99bf a953 dc3f 8956 003e 0202 0d3f
000000b0: 3e25 1d40 2f17 c0bf 2d63 233f 1eb6 b73f
000000c0: 026e 2cbf d2f7 243f d385 173f a63f 09bf
000000d0: c38e 66bf c6c1 b03d c3fe 0b3c 1122 173f
000000e0: 41c9 363d 6831 0440 1cf5 e3be de7e df3f
000000f0: e062 b1bc 1e31 3f3d 6bc2 843e cccb bf3d
00000100: 788e 813f 3ad3 a6bf b4a5 9d3f 3910 d23d
00000110: c03e 03c0 7216 01bf a46e 983f 21dd c73f
00000120: c804 16bf d4e4 733f 944c a63f a32e 5fbf
00000130: dd3d ec3e 0029 723f 55b6 bfbe 68f6 ad3f
00000140: 1002 c53e 7e28 cdbf 4976 453f 12bf d93d
00000150: db3f 1f3e 682c 953f 3c26 d0be 812e e7be
00000160: 0729 4abf fc24 73be f6e4 0940 2abf debf
00000170: ba3d 923e 14e0 78bf 509d 903f 8b40 cb3f
00000180: a9a5 2cbe 6d23 8fbf 88da 013d 587d c1be
00000190: 4d7e 1b3f 181c cd3d 1b9a 8fbf 6058 b6bf
000001a0: 9567 a63f 5e01 cf3e 35ae 4fbf a9f1 903f
000001b0: ff38 0e3f 5a10 ebbd b7ea 89be 3565 cabf
000001c0: e7dc 7a3f 9e50 413e bd39 e3be 9107 b43e
000001d0: 5ec6 7bbe 0ef2 003f a8bc a63f 34ef 6b3e
000001e0: 439e 46bf 2213 0ebf f22e ae3e 2280 773f
000001f0: 0694 893f 21c3 1d40 fc52 a73f 0d89 01be
00000200: ab38 a53e 80a8 87be 7f1c 863e ebea 9dbf
00000210: 43c6 383e d8a1 a3bf 813c 47bf 6951 ec3d
00000220: ca6c 04bd ed5b bbbd f2a4 513e 913c 93bf
00000230: f34d 1c3f 9bfa 5dbf 810a e63f 2366 8f3f
00000240: 64f1 fe3d a524 b13f 2a5c 843f 4024 c9be
00000250: 9014 57be 2370 abbd 2244 f73e 83b4 0440
00000260: 71f3 d3be c25e 853e c695 753e b981 edbf
00000270: 70aa cdbe f88d 983e 3dec 643f 67b6 a03d
00000280: 50b2 983e 2de3 c8be 32fe 293f 69dd d0be
00000290: 4e2d 4ebe 8d76 4f3e 1ee6 fc3f fcbc 533c
000002a0: d65d 8f3f 9409 bc3f e578 3a3f bdf3 753b
000002b0: ea57 ca3f 50ab 18be dfe2 18be b464 3abf
000002c0: 5460 c0be 7d46 51bf c3d1 f2bd 0175 273e
000002d0: a33f 0fbe f577 4b3f de44 413f d0d4 b53f
000002e0: 1fab 49bf 5937 a83f 1926 0040 0b71 2fbe
000002f0: f1c4 95bf 8ed1 073f f107 a2be c996 ee3e
00000300: 9da5 c7be 7d0c 29c0 5acd 15bf 32e6 64be
00000310: c341 1e3f 6c5d f8bd d754 103f 4c0c f1bd
00000320: 4762 5ebe 4b43 f43e d674 5c3b ef3b 543f
00000330: 86a4 963f 1fc0 043f 56da d0be c20a 38bf
00000340: b907 223f 7d42 123e af21 ac3d cc8f dfbe
00000350: f5b2 4dbf 99d9 afbf 301f 69bb d33a efbf
00000360: b552 f1bf 1264 1f3f 8255 b6bf df71 7ebe
00000370: a391 8a3e 1156 7ebf d84e 98bf 6b57 c23f
00000380: 3f35 5a3d 38a3 d63f c991 883c a0e6 66be
00000390: ff45 30bf 306a 84be 4c85 89bf 0f95 413f
000003a0: 2c2b 0f3f 59dc 07be b827 b93f e91a 653d
000003b0: 4086 423f 7170 533f f393 b0bf 30d3 24be
000003c0: bb4b 82bf c2b5 5c3f 2d6c eb3e 893a 0fbf
000003d0: 2cfe 29bf f03c 0fbe bca3 933f 5d8e 953f
000003e0: b689 6a3f 17b4 a53f a048 3abe 6a9d d03f
000003f0: bf16 1fbd 423b 36bf 0a6d d0be bcae c2be
-0.28847766 -0.38632125 -2.349896 0.32876593 -0.9123431 -0.46707603 -0.09731824 0.05102207
0.7674185 1.1441232 -0.47670394 -0.7808644 -1.4079058 -1.081776 1.045283 0.33795607
1.240392 -0.83107215 -2.0214722 -1.0956779 0.6905458 -0.41856632 -0.14363414 0.54107404
1.0281255 -0.118107155 -0.38625264 1.1008598 -0.41859135 -1.0108405 0.62210304 1.8471925
0.56499094 -0.31769043 0.40631065 0.3174474 -0.4685275 0.52577233 1.8453891 1.3285708
-1.1960397 1.7213031 0.1253301 0.5508119 2.455398 -1.5007075 0.63823205 1.4352453
-0.6735536 0.64440644 0.59188575 -0.53612745 -0.9006159 0.08630709 0.008544627 0.59036356
0.044625524 2.0655155 -0.4452294 1.7460592 -0.021653593 0.0466777 0.2592958 0.09365043
1.0121603 -1.3033211 1.2316194 0.102570005 -2.050705 -0.50424874 1.1908765 1.5614358
-0.58601046 0.9527104 1.299212 -0.87180537 0.46140948 0.9459381 -0.37443796 1.3590822
0.38478136 -1.6027982 0.77133614 0.10632147 0.15551703 1.1654177 -0.4065417 -0.45152667
-0.7896885 -0.23744577 2.1545997 -1.7402089 0.2856272 -0.97216916 1.1298008 1.5879072
-0.1686007 -1.1182686 0.03170255 -0.37790942 0.60739595 0.10015124 -1.1218904 -1.424572
1.3000361 0.4043073 -0.81125194 1.1323749 0.5555572 -0.11477728 -0.26936886 -1.5812136
0.9799332 0.1887841 -0.44379988 0.35162023 -0.2458739 0.50369346 1.3026323 0.23040468
-0.7758524 -0.55497944 0.3402019 0.9667989 1.0748298 2.4650347 1.30722 -0.12649937
0.32269797 -0.26495743 0.26193616 -1.2337316 0.18044381 -1.2783766 -0.77826697 0.11538965
-0.03233031 -0.09148393 0.20473078 -1.1502858 0.6105644 -0.8671052 1.7971956 1.1203045
0.12448385 1.3839308 1.0340626 -0.3928547 -0.21003938 -0.08370998 0.4829417 2.0735176
-0.4139667 0.26048857 0.23982915 -1.8555213 -0.40169096 0.29795814 0.8942297 0.078472905
0.29823542 -0.3923582 0.66403496 -0.40793923 -0.2013447 0.20260067 1.9757726 0.012923475
1.1200511 1.4690423 0.7284072 0.0037529313 1.5808079 -0.149091 -0.14930294 -0.7280991
-0.37573493 -0.8174818 -0.11856415 0.16353227 -0.13989119 0.79479915 0.7549571 1.420557
-0.78776735 1.3141891 2.0023253 -0.17132966 -1.1700727 0.5305413 -0.31646684 0.46599415
-0.3899354 -2.6413872 -0.58516467 -0.22353438 0.61819094 -0.12127194 0.56379455 -0.117699236
-0.21717177 0.4770759 0.0033638976 0.8290395 1.1768959 0.51855654 -0.40791577 -0.71891415
0.63293034 0.14283176 0.08404862 -0.43664396 -0.8035119 -1.373828 -0.0035571568 -1.8689827
-1.8853365 0.6226207 -1.4244845 -0.24848126 0.27064237 -0.99350077 -1.1899061 1.5182928
0.053273436 1.676856 0.016671078 -0.22548914 -0.68856806 -0.25862265 -1.0743804 0.7561807
0.5592525 -0.1326765 1.4465246 0.055933867 0.759861 0.82593447 -1.379515 -0.16096187
-1.0179361 0.8621484 0.4598097 -0.5594869 -0.6640346 -0.1398809 1.1534343 1.1684071
0.9161638 1.2945584 -0.18191767 1.6298039 -0.03884005 -0.7118417 -0.4070819 -0.38023937

output_mask f4 [64]
00000000: 0000 803f 0000 803f 0000 803f 0000 803f
00000010: 0000 803f 0000 803f 0000 803f 0000 803f
00000020: 0000 803f 0000 803f 0000 803f 0000 803f
00000030: 0000 803f 0000 803f 0000 803f 0000 803f
00000040: 0000 803f 0000 803f 0000 803f 0000 803f
00000050: 0000 803f 0000 803f 0000 803f 0000 803f
00000060: 0000 803f 0000 803f 0000 803f 0000 803f
00000070: 0000 803f 0000 803f 0000 803f 0000 803f
00000080: 0000 803f 0000 803f 0000 803f 0000 803f
00000090: 0000 803f 0000 803f 0000 803f 0000 803f
000000a0: 0000 803f 0000 803f 0000 803f 0000 803f
000000b0: 0000 803f 0000 803f 0000 803f 0000 803f
000000c0: 0000 803f 0000 803f 0000 803f 0000 803f
000000d0: 0000 803f 0000 803f 0000 803f 0000 803f
000000e0: 0000 803f 0000 803f 0000 803f 0000 803f
000000f0: 0000 803f 0000 803f 0000 803f 0000 803f
1.0 1.0 1.0 1.0 1.0 1.0 1.0 1.0
1.0 1.0 1.0 1.0 1.0 1.0 1.0 1.0
1.0 1.0 1.0 1.0 1.0 1.0 1.0 1.0
1.0 1.0 1.0 1.0 1.0 1.0 1.0 1.0
1.0 1.0 1.0 1.0 1.0 1.0 1.0 1.0
1.0 1.0 1.0 1.0 1.0 1.0 1.0 1.0
1.0 1.0 1.0 1.0 1.0 1.0 1.0 1.0
1.0 1.0 1.0 1.0 1.0 1.0 1.0 1.0

weight f4 [1152]
00000000: 9a59 113f 950b c53f 4af1 adbe e83b a43f
00000010: 89d2 1abe 6c00 4ebf 878a cb3e 7548 02bd
00000020: 499c 553e d6e8 423f e5df 91bf 54b7 b63c
00000030: 7ab7 553f cb11 e23e cfb3 b9be 1125 223f
00000040: 6fcc 06bf 11d8 c63d 400f 383d f826 eabf
00000050: 2558 12be 994a 02c0 eddd 97be 19a5 83bd
00000060: 299a 94bc 765c 09be 47bf 71bf 14d9 b5bf
00000070: a5e0 07bf 0287 e4bf 9920 853e 54f6 b33f
00000080: 884d fdbe 5186 a23f bfe7 4f3e 817a 5d3f
00000090: de54 87be 759f 733f 956b b33d 9ae7 62be
000000a0: 1c58 fcbe 62e3 bbbf 086a 9fbf 4538 56be
000000b0: 58ef 8cbf 200c 53bf 63ec 22be 53bd c0bf
000000c0: 8e7c 12bf a23f 9b3f bc82 a5bf 3ebc 00bf
000000d0: 9013 f83e d828 803f ca2e 263f e87e 803f
000000e0: 68cc 2ebe 3c02 b1be 4590 1ebe feea c9bc
000000f0: 5d79 4bbf fd61 ccbe 40a4 4dbf da62 ad3f
00000100: b5e0 ddbe d86a 1bbe 69ae 473c 4ff6 083f
00000110: 7042 9a3f a712 493f ca34 a23f 2a97 ac3f
00000120: ac7b f0be e914 05bf 05c6 1b3f 8c88 3dbf
00000130: 6cf3 f43e bb2d 0b3f d389 48bf ace2 c4bf
00000140: 57a3 1e3f 9931 f4be 04e8 813f 8083 ebbe
00000150: bb55 53bf 06bc 3e3f caa5 84bd c3c8 06bf
00000160: a5b2 b63f b213 2fbf 70e9 09bf d204 1a3e
00000170: bc35 cc3e 1997 bbbf c009 a0bf 51a6 d53d
00000180: 425e 34c0 2326 c3bf 4610 823f ab35 96bf
00000190: d282 c43f 4c4a 2dbf b9b8 36bf dc63 753f
000001a0: 84a9 8dbf c4d1 d43f ad98 12bf a8a9 45bf
000001b0: 7efa bcbe 6323 ac3f 1333 92bc b61b e63d
000001c0: cadf 4fbf 4982 88bf 1319 a73e 36f8 e73e
000001d0: ed27 013f 670b 153c 37e9 c73e 6d7f 81bf
000001e0: 22f6 17bf 67b7 e2bf 8720 0b3f 629c 60be
000001f0: 4dd0 7e3f ae93 d8bf 8eb7 b33f f0be 8abe
00000200: b967 edbe 3968 6fbf cbc1 a0bf 43c7 3abf
00000210: 4126 6abe 18bd c5bf 1b23 6c3f bee0 43bf
00000220: 9467 da3e d735 ddbf b416 99bf 30b9 973f
00000230: 944b 863f 1d77 2c40 4d50 82bf a279 e7be
00000240: 26d3 963e 5fa4 a3bf 675c 1e3f 8a1f 1bbf
00000250: 2c01 ca3e ef46 01bd 5590 e73e a234 ffbf
00000260: c520 f1be 8c85 c73e 7a77 9bbe ee44 7e3f
00000270: 2b7a ffbf a59a 81bf 3442 973e 3d8e 89bf
00000280: 45d0 9ebf baba 813f c75f 8ebe d84a d43d
00000290: 6dc4 e13f 0683 8dbd 1bc3 c2be 069e 8b3f
000002a0: 2453 ec3d 9e8f 683e 30ce bcbd 1b10 61bf
000002b0: e596 813f d817 f6be 204e de3f 8e65 8ebf
000002c0: c0aa 06c0 a5bc 15be b926 003f c531 bb3e
000002d0: f179 393e 6744 183e 2d3d 82bf a416 71bf
000002e0: 381e 86be 2606 473d c339 24bf aebf d7bf
000002f0: 5b09 d93e ac9f d43d 986b 1a3e 9011 e03e
00000300: 7218 f23e e82e 313f dc39 c83f 1f2a 0abf
00000310: 334f f0be 38ad ae3f c0c9 bbbe 14de 4b3f
00000320: 94fe d3bf 538e 743f 5fd7 9d3f 8506 f9bf
00000330: 3ec8 d03e ba2d 903f 9073 4d3d ed26 863f
00000340: 6277 9fbf 9e3e 443d 2ef6 3f3f 5702 18bf
00000350: 3130 813e 543f 31bf 66fd 5dbf 7d7d ddbe
00000360: 4ddb 09bf 07fb a73f 3d68 573d 943c 1ebe
00000370: e3bd b0bf 1bbe 8ebd c9c1 b23e 5b8c 703f
00000380: 7714 ad3f e731 aabe 897f 2bbf ca89 583f
00000390: 3ccd a6be ffe4 78bf fc3d d6bf 78fe 24c0
000003a0: 441b 83bf 03a6 163f 9236 2cbf e72e 4c3e
000003b0: 4f21 453d 4b0a 61bf afbf dfbe 3585 6f3f
000003c0: 6a0b 2dbf 3b5a 9ebf 3467 873f 247a 8f3f
000003d0: 05a9 59be f19c 5abf 2f2e 6bbf 873a 1140
000003e0: 2c22 92bf 6e8d 9ebf a371 443f 3984 5b3f
000003f0: 6770 c23e b8c8 e7bd 55dc 923f 30a1 a23e
0.56777346 1.539416 -0.3397315 1.2830782 -0.15119375 -0.80469394 0.39754125 -0.03180738
0.208604 0.7613653 -1.1396452 0.022304215 0.8348309 0.441542 -0.36269996 0.6333781
-0.5265569 0.0970918 0.04493642 -1.8293142 -0.14291437 -2.035803 -0.29661503 -0.06427974
-0.018139916 -0.13414177 -0.9443249 -1.4206872 -0.53077155 -1.7853701 0.26001433 1.4059548
-0.49473214 1.269724 0.20303248 0.8651505 -0.26431936 0.9516519 0.08760754 -0.22158661
-0.49285972 -1.4678767 -1.2454233 -0.20919903 -1.1010542 -0.82440376 -0.15910487 -1.5057777
-0.57221305 1.2128794 -1.2930522 -0.50287235 0.48452425 1.0012465 0.64915144 1.0038729
-0.17070162 -0.34572017 -0.15484722 -0.024648186 -0.7948206 -0.3991851 -0.8032875 1.3545792
-0.433355 -0.15177476 0.012187579 0.5350084 1.2051525 0.78544086 1.267236 1.3483632
-0.46969354 -0.5198503 0.6084903 -0.7403648 0.47841966 0.54366654 -0.78335303 -1.5381675
0.61967987 -0.4769409 1.014893 -0.45998764 -0.8255269 0.7450565 -0.06476934 -0.5265009
1.4273268 -0.6838943 -0.5387182 0.15040901 0.39884746 -1.4655486 -1.2502975 0.10432113
-2.818253 -1.5246013 1.0161216 -1.1735128 1.5352423 -0.67691493 -0.71375614 0.958555
-1.1067357 1.6626515 -0.57264215 -0.77212 -0.3690986 1.3448299 -0.01784662 0.11235754
-0.8120085 -1.066476 0.32636318 0.45306557 0.50451547 0.009096957 0.39045116 -1.0117012
-0.59359944 -1.771222 0.5434651 -0.21934655 0.9953659 -1.6920068 1.4040391 -0.270988
-0.46368197 -0.93518406 -1.2559141 -0.729603 -0.22866155 -1.5448332 0.92241067 -0.76514804
0.4265715 -1.7282056 -1.1960053 1.185339 1.0491815 2.69477 -1.0180756 -0.45209986
0.29457968 -1.2784537 0.61859745 -0.60595 0.3945402 -0.03156179 0.45227304 -1.9937937
-0.47095314 0.38969076 -0.3036459 0.9932393 -1.9959158 -1.0125319 0.29542696 -1.0746533
-1.2407309 1.013511 -0.27807447 0.10365838 1.7638069 -0.06909756 -0.3803948 1.09076
0.11539295 0.22711036 -0.09219015 -0.879152 1.0124174 -0.48065066 1.7367592 -1.1124742
-2.1041718 -0.14622743 0.50059086 0.3656141 0.18112923 0.14869843 -1.0174919 -0.9417517
-0.2619493 0.048589848 -0.6415064 -1.6855371 0.4238995 0.103820175 0.15080106 0.437634
0.47284275 0.692122 1.5642657 -0.5397052 -0.46935424 1.3646612 -0.3667736 0.7963574
-1.6562066 0.9552967 1.2331351 -1.9455115 0.40777773 1.1263955 0.050159037 1.0480629
-1.2458308 0.04791128 0.74985015 -0.5937857 0.2523208 -0.69237256 -0.8671478 -0.43259802
-0.5385025 1.3123482 0.052589644 -0.15452796 -1.3807949 -0.069698535 0.3491347 0.93964165
1.352187 -0.33241197 -0.6699148 0.8458525 -0.32578456 -0.9722442 -1.6737666 -2.5780315
-1.0242696 0.58847064 -0.6727077 0.19939767 0.04812747 -0.8790633 -0.4370093 0.9356263
-0.6759554 -1.2371286 1.057837 1.1209149 -0.21255882 -0.85395724 -0.91867346 2.2691972
-1.1416678 -1.2386911 0.76735896 0.8574863 0.3797638 -0.11317581 1.147349 0.317636
